<?xml version="1.0"?>
<net name="torch-jit-export" version="11">
	<layers>
		<layer id="0" name="input" type="Parameter" version="opset1">
			<data shape="1,3,416,640" element_type="f32" />
			<rt_info>
				<attribute name="old_api_map_element_type" version="0" value="f16" />
			</rt_info>
			<output>
				<port id="0" precision="FP32" names="input">
					<dim>1</dim>
					<dim>3</dim>
					<dim>416</dim>
					<dim>640</dim>
				</port>
			</output>
		</layer>
		<layer id="1" name="model.0.stem_1.conv.weight_compressed" type="Const" version="opset1">
			<data element_type="f16" shape="32, 3, 3, 3" offset="0" size="1728" />
			<output>
				<port id="0" precision="FP16">
					<dim>32</dim>
					<dim>3</dim>
					<dim>3</dim>
					<dim>3</dim>
				</port>
			</output>
		</layer>
		<layer id="2" name="model.0.stem_1.conv.weight" type="Convert" version="opset1">
			<data destination_type="f32" />
			<rt_info>
				<attribute name="decompression" version="0" />
			</rt_info>
			<input>
				<port id="0" precision="FP16">
					<dim>32</dim>
					<dim>3</dim>
					<dim>3</dim>
					<dim>3</dim>
				</port>
			</input>
			<output>
				<port id="1" precision="FP32" names="model.0.stem_1.conv.weight">
					<dim>32</dim>
					<dim>3</dim>
					<dim>3</dim>
					<dim>3</dim>
				</port>
			</output>
		</layer>
		<layer id="3" name="Conv_0/WithoutBiases" type="Convolution" version="opset1">
			<data strides="2, 2" dilations="1, 1" pads_begin="1, 1" pads_end="1, 1" auto_pad="explicit" />
			<input>
				<port id="0" precision="FP32">
					<dim>1</dim>
					<dim>3</dim>
					<dim>416</dim>
					<dim>640</dim>
				</port>
				<port id="1" precision="FP32">
					<dim>32</dim>
					<dim>3</dim>
					<dim>3</dim>
					<dim>3</dim>
				</port>
			</input>
			<output>
				<port id="2" precision="FP32">
					<dim>1</dim>
					<dim>32</dim>
					<dim>208</dim>
					<dim>320</dim>
				</port>
			</output>
		</layer>
		<layer id="4" name="Reshape_175_compressed" type="Const" version="opset1">
			<data element_type="f16" shape="1, 32, 1, 1" offset="1728" size="64" />
			<output>
				<port id="0" precision="FP16">
					<dim>1</dim>
					<dim>32</dim>
					<dim>1</dim>
					<dim>1</dim>
				</port>
			</output>
		</layer>
		<layer id="5" name="Reshape_175" type="Convert" version="opset1">
			<data destination_type="f32" />
			<rt_info>
				<attribute name="decompression" version="0" />
			</rt_info>
			<input>
				<port id="0" precision="FP16">
					<dim>1</dim>
					<dim>32</dim>
					<dim>1</dim>
					<dim>1</dim>
				</port>
			</input>
			<output>
				<port id="1" precision="FP32">
					<dim>1</dim>
					<dim>32</dim>
					<dim>1</dim>
					<dim>1</dim>
				</port>
			</output>
		</layer>
		<layer id="6" name="Conv_0" type="Add" version="opset1">
			<data auto_broadcast="numpy" />
			<input>
				<port id="0" precision="FP32">
					<dim>1</dim>
					<dim>32</dim>
					<dim>208</dim>
					<dim>320</dim>
				</port>
				<port id="1" precision="FP32">
					<dim>1</dim>
					<dim>32</dim>
					<dim>1</dim>
					<dim>1</dim>
				</port>
			</input>
			<output>
				<port id="2" precision="FP32" names="onnx::Sigmoid_316">
					<dim>1</dim>
					<dim>32</dim>
					<dim>208</dim>
					<dim>320</dim>
				</port>
			</output>
		</layer>
		<layer id="7" name="Mul_2" type="Swish" version="opset4">
			<input>
				<port id="0" precision="FP32">
					<dim>1</dim>
					<dim>32</dim>
					<dim>208</dim>
					<dim>320</dim>
				</port>
			</input>
			<output>
				<port id="1" precision="FP32" names="input.1">
					<dim>1</dim>
					<dim>32</dim>
					<dim>208</dim>
					<dim>320</dim>
				</port>
			</output>
		</layer>
		<layer id="8" name="model.0.stem_2a.conv.weight_compressed" type="Const" version="opset1">
			<data element_type="f16" shape="16, 32, 1, 1" offset="1792" size="1024" />
			<output>
				<port id="0" precision="FP16">
					<dim>16</dim>
					<dim>32</dim>
					<dim>1</dim>
					<dim>1</dim>
				</port>
			</output>
		</layer>
		<layer id="9" name="model.0.stem_2a.conv.weight" type="Convert" version="opset1">
			<data destination_type="f32" />
			<rt_info>
				<attribute name="decompression" version="0" />
			</rt_info>
			<input>
				<port id="0" precision="FP16">
					<dim>16</dim>
					<dim>32</dim>
					<dim>1</dim>
					<dim>1</dim>
				</port>
			</input>
			<output>
				<port id="1" precision="FP32" names="model.0.stem_2a.conv.weight">
					<dim>16</dim>
					<dim>32</dim>
					<dim>1</dim>
					<dim>1</dim>
				</port>
			</output>
		</layer>
		<layer id="10" name="Conv_3/WithoutBiases" type="Convolution" version="opset1">
			<data strides="1, 1" dilations="1, 1" pads_begin="0, 0" pads_end="0, 0" auto_pad="explicit" />
			<input>
				<port id="0" precision="FP32">
					<dim>1</dim>
					<dim>32</dim>
					<dim>208</dim>
					<dim>320</dim>
				</port>
				<port id="1" precision="FP32">
					<dim>16</dim>
					<dim>32</dim>
					<dim>1</dim>
					<dim>1</dim>
				</port>
			</input>
			<output>
				<port id="2" precision="FP32">
					<dim>1</dim>
					<dim>16</dim>
					<dim>208</dim>
					<dim>320</dim>
				</port>
			</output>
		</layer>
		<layer id="11" name="Reshape_225_compressed" type="Const" version="opset1">
			<data element_type="f16" shape="1, 16, 1, 1" offset="2816" size="32" />
			<output>
				<port id="0" precision="FP16">
					<dim>1</dim>
					<dim>16</dim>
					<dim>1</dim>
					<dim>1</dim>
				</port>
			</output>
		</layer>
		<layer id="12" name="Reshape_225" type="Convert" version="opset1">
			<data destination_type="f32" />
			<rt_info>
				<attribute name="decompression" version="0" />
			</rt_info>
			<input>
				<port id="0" precision="FP16">
					<dim>1</dim>
					<dim>16</dim>
					<dim>1</dim>
					<dim>1</dim>
				</port>
			</input>
			<output>
				<port id="1" precision="FP32">
					<dim>1</dim>
					<dim>16</dim>
					<dim>1</dim>
					<dim>1</dim>
				</port>
			</output>
		</layer>
		<layer id="13" name="Conv_3" type="Add" version="opset1">
			<data auto_broadcast="numpy" />
			<input>
				<port id="0" precision="FP32">
					<dim>1</dim>
					<dim>16</dim>
					<dim>208</dim>
					<dim>320</dim>
				</port>
				<port id="1" precision="FP32">
					<dim>1</dim>
					<dim>16</dim>
					<dim>1</dim>
					<dim>1</dim>
				</port>
			</input>
			<output>
				<port id="2" precision="FP32" names="onnx::Sigmoid_319">
					<dim>1</dim>
					<dim>16</dim>
					<dim>208</dim>
					<dim>320</dim>
				</port>
			</output>
		</layer>
		<layer id="14" name="Mul_5" type="Swish" version="opset4">
			<input>
				<port id="0" precision="FP32">
					<dim>1</dim>
					<dim>16</dim>
					<dim>208</dim>
					<dim>320</dim>
				</port>
			</input>
			<output>
				<port id="1" precision="FP32" names="input.4">
					<dim>1</dim>
					<dim>16</dim>
					<dim>208</dim>
					<dim>320</dim>
				</port>
			</output>
		</layer>
		<layer id="15" name="model.0.stem_2b.conv.weight_compressed" type="Const" version="opset1">
			<data element_type="f16" shape="32, 16, 3, 3" offset="2848" size="9216" />
			<output>
				<port id="0" precision="FP16">
					<dim>32</dim>
					<dim>16</dim>
					<dim>3</dim>
					<dim>3</dim>
				</port>
			</output>
		</layer>
		<layer id="16" name="model.0.stem_2b.conv.weight" type="Convert" version="opset1">
			<data destination_type="f32" />
			<rt_info>
				<attribute name="decompression" version="0" />
			</rt_info>
			<input>
				<port id="0" precision="FP16">
					<dim>32</dim>
					<dim>16</dim>
					<dim>3</dim>
					<dim>3</dim>
				</port>
			</input>
			<output>
				<port id="1" precision="FP32" names="model.0.stem_2b.conv.weight">
					<dim>32</dim>
					<dim>16</dim>
					<dim>3</dim>
					<dim>3</dim>
				</port>
			</output>
		</layer>
		<layer id="17" name="Conv_6/WithoutBiases" type="Convolution" version="opset1">
			<data strides="2, 2" dilations="1, 1" pads_begin="1, 1" pads_end="1, 1" auto_pad="explicit" />
			<input>
				<port id="0" precision="FP32">
					<dim>1</dim>
					<dim>16</dim>
					<dim>208</dim>
					<dim>320</dim>
				</port>
				<port id="1" precision="FP32">
					<dim>32</dim>
					<dim>16</dim>
					<dim>3</dim>
					<dim>3</dim>
				</port>
			</input>
			<output>
				<port id="2" precision="FP32">
					<dim>1</dim>
					<dim>32</dim>
					<dim>104</dim>
					<dim>160</dim>
				</port>
			</output>
		</layer>
		<layer id="18" name="Reshape_275_compressed" type="Const" version="opset1">
			<data element_type="f16" shape="1, 32, 1, 1" offset="12064" size="64" />
			<output>
				<port id="0" precision="FP16">
					<dim>1</dim>
					<dim>32</dim>
					<dim>1</dim>
					<dim>1</dim>
				</port>
			</output>
		</layer>
		<layer id="19" name="Reshape_275" type="Convert" version="opset1">
			<data destination_type="f32" />
			<rt_info>
				<attribute name="decompression" version="0" />
			</rt_info>
			<input>
				<port id="0" precision="FP16">
					<dim>1</dim>
					<dim>32</dim>
					<dim>1</dim>
					<dim>1</dim>
				</port>
			</input>
			<output>
				<port id="1" precision="FP32">
					<dim>1</dim>
					<dim>32</dim>
					<dim>1</dim>
					<dim>1</dim>
				</port>
			</output>
		</layer>
		<layer id="20" name="Conv_6" type="Add" version="opset1">
			<data auto_broadcast="numpy" />
			<input>
				<port id="0" precision="FP32">
					<dim>1</dim>
					<dim>32</dim>
					<dim>104</dim>
					<dim>160</dim>
				</port>
				<port id="1" precision="FP32">
					<dim>1</dim>
					<dim>32</dim>
					<dim>1</dim>
					<dim>1</dim>
				</port>
			</input>
			<output>
				<port id="2" precision="FP32" names="onnx::Sigmoid_322">
					<dim>1</dim>
					<dim>32</dim>
					<dim>104</dim>
					<dim>160</dim>
				</port>
			</output>
		</layer>
		<layer id="21" name="Mul_8" type="Swish" version="opset4">
			<input>
				<port id="0" precision="FP32">
					<dim>1</dim>
					<dim>32</dim>
					<dim>104</dim>
					<dim>160</dim>
				</port>
			</input>
			<output>
				<port id="1" precision="FP32" names="onnx::Concat_324">
					<dim>1</dim>
					<dim>32</dim>
					<dim>104</dim>
					<dim>160</dim>
				</port>
			</output>
		</layer>
		<layer id="22" name="MaxPool_9" type="MaxPool" version="opset8">
			<data strides="2, 2" dilations="1, 1" pads_begin="0, 0" pads_end="0, 0" kernel="2, 2" rounding_type="ceil" auto_pad="explicit" index_element_type="i64" axis="0" />
			<input>
				<port id="0" precision="FP32">
					<dim>1</dim>
					<dim>32</dim>
					<dim>208</dim>
					<dim>320</dim>
				</port>
			</input>
			<output>
				<port id="1" precision="FP32" names="onnx::Concat_325">
					<dim>1</dim>
					<dim>32</dim>
					<dim>104</dim>
					<dim>160</dim>
				</port>
				<port id="2" precision="I64">
					<dim>1</dim>
					<dim>32</dim>
					<dim>104</dim>
					<dim>160</dim>
				</port>
			</output>
		</layer>
		<layer id="23" name="Concat_10" type="Concat" version="opset1">
			<data axis="1" />
			<input>
				<port id="0" precision="FP32">
					<dim>1</dim>
					<dim>32</dim>
					<dim>104</dim>
					<dim>160</dim>
				</port>
				<port id="1" precision="FP32">
					<dim>1</dim>
					<dim>32</dim>
					<dim>104</dim>
					<dim>160</dim>
				</port>
			</input>
			<output>
				<port id="2" precision="FP32" names="input.8">
					<dim>1</dim>
					<dim>64</dim>
					<dim>104</dim>
					<dim>160</dim>
				</port>
			</output>
		</layer>
		<layer id="24" name="model.0.stem_3.conv.weight_compressed" type="Const" version="opset1">
			<data element_type="f16" shape="32, 64, 1, 1" offset="12128" size="4096" />
			<output>
				<port id="0" precision="FP16">
					<dim>32</dim>
					<dim>64</dim>
					<dim>1</dim>
					<dim>1</dim>
				</port>
			</output>
		</layer>
		<layer id="25" name="model.0.stem_3.conv.weight" type="Convert" version="opset1">
			<data destination_type="f32" />
			<rt_info>
				<attribute name="decompression" version="0" />
			</rt_info>
			<input>
				<port id="0" precision="FP16">
					<dim>32</dim>
					<dim>64</dim>
					<dim>1</dim>
					<dim>1</dim>
				</port>
			</input>
			<output>
				<port id="1" precision="FP32" names="model.0.stem_3.conv.weight">
					<dim>32</dim>
					<dim>64</dim>
					<dim>1</dim>
					<dim>1</dim>
				</port>
			</output>
		</layer>
		<layer id="26" name="Conv_11/WithoutBiases" type="Convolution" version="opset1">
			<data strides="1, 1" dilations="1, 1" pads_begin="0, 0" pads_end="0, 0" auto_pad="explicit" />
			<input>
				<port id="0" precision="FP32">
					<dim>1</dim>
					<dim>64</dim>
					<dim>104</dim>
					<dim>160</dim>
				</port>
				<port id="1" precision="FP32">
					<dim>32</dim>
					<dim>64</dim>
					<dim>1</dim>
					<dim>1</dim>
				</port>
			</input>
			<output>
				<port id="2" precision="FP32">
					<dim>1</dim>
					<dim>32</dim>
					<dim>104</dim>
					<dim>160</dim>
				</port>
			</output>
		</layer>
		<layer id="27" name="Reshape_327_compressed" type="Const" version="opset1">
			<data element_type="f16" shape="1, 32, 1, 1" offset="16224" size="64" />
			<output>
				<port id="0" precision="FP16">
					<dim>1</dim>
					<dim>32</dim>
					<dim>1</dim>
					<dim>1</dim>
				</port>
			</output>
		</layer>
		<layer id="28" name="Reshape_327" type="Convert" version="opset1">
			<data destination_type="f32" />
			<rt_info>
				<attribute name="decompression" version="0" />
			</rt_info>
			<input>
				<port id="0" precision="FP16">
					<dim>1</dim>
					<dim>32</dim>
					<dim>1</dim>
					<dim>1</dim>
				</port>
			</input>
			<output>
				<port id="1" precision="FP32">
					<dim>1</dim>
					<dim>32</dim>
					<dim>1</dim>
					<dim>1</dim>
				</port>
			</output>
		</layer>
		<layer id="29" name="Conv_11" type="Add" version="opset1">
			<data auto_broadcast="numpy" />
			<input>
				<port id="0" precision="FP32">
					<dim>1</dim>
					<dim>32</dim>
					<dim>104</dim>
					<dim>160</dim>
				</port>
				<port id="1" precision="FP32">
					<dim>1</dim>
					<dim>32</dim>
					<dim>1</dim>
					<dim>1</dim>
				</port>
			</input>
			<output>
				<port id="2" precision="FP32" names="onnx::Sigmoid_327">
					<dim>1</dim>
					<dim>32</dim>
					<dim>104</dim>
					<dim>160</dim>
				</port>
			</output>
		</layer>
		<layer id="30" name="Mul_13" type="Swish" version="opset4">
			<input>
				<port id="0" precision="FP32">
					<dim>1</dim>
					<dim>32</dim>
					<dim>104</dim>
					<dim>160</dim>
				</port>
			</input>
			<output>
				<port id="1" precision="FP32" names="input.12">
					<dim>1</dim>
					<dim>32</dim>
					<dim>104</dim>
					<dim>160</dim>
				</port>
			</output>
		</layer>
		<layer id="31" name="Reshape_364_compressed" type="Const" version="opset1">
			<data element_type="f16" shape="32, 1, 1, 3, 3" offset="16288" size="576" />
			<output>
				<port id="0" precision="FP16">
					<dim>32</dim>
					<dim>1</dim>
					<dim>1</dim>
					<dim>3</dim>
					<dim>3</dim>
				</port>
			</output>
		</layer>
		<layer id="32" name="Reshape_364" type="Convert" version="opset1">
			<data destination_type="f32" />
			<rt_info>
				<attribute name="decompression" version="0" />
			</rt_info>
			<input>
				<port id="0" precision="FP16">
					<dim>32</dim>
					<dim>1</dim>
					<dim>1</dim>
					<dim>3</dim>
					<dim>3</dim>
				</port>
			</input>
			<output>
				<port id="1" precision="FP32">
					<dim>32</dim>
					<dim>1</dim>
					<dim>1</dim>
					<dim>3</dim>
					<dim>3</dim>
				</port>
			</output>
		</layer>
		<layer id="33" name="Conv_14/WithoutBiases" type="GroupConvolution" version="opset1">
			<data strides="2, 2" pads_begin="1, 1" pads_end="1, 1" dilations="1, 1" auto_pad="explicit" />
			<input>
				<port id="0" precision="FP32">
					<dim>1</dim>
					<dim>32</dim>
					<dim>104</dim>
					<dim>160</dim>
				</port>
				<port id="1" precision="FP32">
					<dim>32</dim>
					<dim>1</dim>
					<dim>1</dim>
					<dim>3</dim>
					<dim>3</dim>
				</port>
			</input>
			<output>
				<port id="2" precision="FP32">
					<dim>1</dim>
					<dim>32</dim>
					<dim>52</dim>
					<dim>80</dim>
				</port>
			</output>
		</layer>
		<layer id="34" name="Reshape_450_compressed" type="Const" version="opset1">
			<data element_type="f16" shape="1, 32, 1, 1" offset="16864" size="64" />
			<output>
				<port id="0" precision="FP16">
					<dim>1</dim>
					<dim>32</dim>
					<dim>1</dim>
					<dim>1</dim>
				</port>
			</output>
		</layer>
		<layer id="35" name="Reshape_450" type="Convert" version="opset1">
			<data destination_type="f32" />
			<rt_info>
				<attribute name="decompression" version="0" />
			</rt_info>
			<input>
				<port id="0" precision="FP16">
					<dim>1</dim>
					<dim>32</dim>
					<dim>1</dim>
					<dim>1</dim>
				</port>
			</input>
			<output>
				<port id="1" precision="FP32">
					<dim>1</dim>
					<dim>32</dim>
					<dim>1</dim>
					<dim>1</dim>
				</port>
			</output>
		</layer>
		<layer id="36" name="Conv_14" type="Add" version="opset1">
			<data auto_broadcast="numpy" />
			<input>
				<port id="0" precision="FP32">
					<dim>1</dim>
					<dim>32</dim>
					<dim>52</dim>
					<dim>80</dim>
				</port>
				<port id="1" precision="FP32">
					<dim>1</dim>
					<dim>32</dim>
					<dim>1</dim>
					<dim>1</dim>
				</port>
			</input>
			<output>
				<port id="2" precision="FP32" names="input.20">
					<dim>1</dim>
					<dim>32</dim>
					<dim>52</dim>
					<dim>80</dim>
				</port>
			</output>
		</layer>
		<layer id="37" name="onnx::Conv_1124_compressed" type="Const" version="opset1">
			<data element_type="f16" shape="60, 32, 1, 1" offset="16928" size="3840" />
			<output>
				<port id="0" precision="FP16">
					<dim>60</dim>
					<dim>32</dim>
					<dim>1</dim>
					<dim>1</dim>
				</port>
			</output>
		</layer>
		<layer id="38" name="onnx::Conv_1124" type="Convert" version="opset1">
			<data destination_type="f32" />
			<rt_info>
				<attribute name="decompression" version="0" />
			</rt_info>
			<input>
				<port id="0" precision="FP16">
					<dim>60</dim>
					<dim>32</dim>
					<dim>1</dim>
					<dim>1</dim>
				</port>
			</input>
			<output>
				<port id="1" precision="FP32" names="onnx::Conv_1124">
					<dim>60</dim>
					<dim>32</dim>
					<dim>1</dim>
					<dim>1</dim>
				</port>
			</output>
		</layer>
		<layer id="39" name="Conv_15/WithoutBiases" type="Convolution" version="opset1">
			<data strides="1, 1" dilations="1, 1" pads_begin="0, 0" pads_end="0, 0" auto_pad="explicit" />
			<input>
				<port id="0" precision="FP32">
					<dim>1</dim>
					<dim>32</dim>
					<dim>52</dim>
					<dim>80</dim>
				</port>
				<port id="1" precision="FP32">
					<dim>60</dim>
					<dim>32</dim>
					<dim>1</dim>
					<dim>1</dim>
				</port>
			</input>
			<output>
				<port id="2" precision="FP32">
					<dim>1</dim>
					<dim>60</dim>
					<dim>52</dim>
					<dim>80</dim>
				</port>
			</output>
		</layer>
		<layer id="40" name="Reshape_498_compressed" type="Const" version="opset1">
			<data element_type="f16" shape="1, 60, 1, 1" offset="20768" size="120" />
			<output>
				<port id="0" precision="FP16">
					<dim>1</dim>
					<dim>60</dim>
					<dim>1</dim>
					<dim>1</dim>
				</port>
			</output>
		</layer>
		<layer id="41" name="Reshape_498" type="Convert" version="opset1">
			<data destination_type="f32" />
			<rt_info>
				<attribute name="decompression" version="0" />
			</rt_info>
			<input>
				<port id="0" precision="FP16">
					<dim>1</dim>
					<dim>60</dim>
					<dim>1</dim>
					<dim>1</dim>
				</port>
			</input>
			<output>
				<port id="1" precision="FP32">
					<dim>1</dim>
					<dim>60</dim>
					<dim>1</dim>
					<dim>1</dim>
				</port>
			</output>
		</layer>
		<layer id="42" name="Conv_15" type="Add" version="opset1">
			<data auto_broadcast="numpy" />
			<input>
				<port id="0" precision="FP32">
					<dim>1</dim>
					<dim>60</dim>
					<dim>52</dim>
					<dim>80</dim>
				</port>
				<port id="1" precision="FP32">
					<dim>1</dim>
					<dim>60</dim>
					<dim>1</dim>
					<dim>1</dim>
				</port>
			</input>
			<output>
				<port id="2" precision="FP32" names="onnx::Sigmoid_1123">
					<dim>1</dim>
					<dim>60</dim>
					<dim>52</dim>
					<dim>80</dim>
				</port>
			</output>
		</layer>
		<layer id="43" name="Mul_17" type="Swish" version="opset4">
			<input>
				<port id="0" precision="FP32">
					<dim>1</dim>
					<dim>60</dim>
					<dim>52</dim>
					<dim>80</dim>
				</port>
			</input>
			<output>
				<port id="1" precision="FP32" names="onnx::Concat_335">
					<dim>1</dim>
					<dim>60</dim>
					<dim>52</dim>
					<dim>80</dim>
				</port>
			</output>
		</layer>
		<layer id="44" name="onnx::Conv_1127_compressed" type="Const" version="opset1">
			<data element_type="f16" shape="60, 32, 1, 1" offset="20888" size="3840" />
			<output>
				<port id="0" precision="FP16">
					<dim>60</dim>
					<dim>32</dim>
					<dim>1</dim>
					<dim>1</dim>
				</port>
			</output>
		</layer>
		<layer id="45" name="onnx::Conv_1127" type="Convert" version="opset1">
			<data destination_type="f32" />
			<rt_info>
				<attribute name="decompression" version="0" />
			</rt_info>
			<input>
				<port id="0" precision="FP16">
					<dim>60</dim>
					<dim>32</dim>
					<dim>1</dim>
					<dim>1</dim>
				</port>
			</input>
			<output>
				<port id="1" precision="FP32" names="onnx::Conv_1127">
					<dim>60</dim>
					<dim>32</dim>
					<dim>1</dim>
					<dim>1</dim>
				</port>
			</output>
		</layer>
		<layer id="46" name="Conv_18/WithoutBiases" type="Convolution" version="opset1">
			<data strides="1, 1" dilations="1, 1" pads_begin="0, 0" pads_end="0, 0" auto_pad="explicit" />
			<input>
				<port id="0" precision="FP32">
					<dim>1</dim>
					<dim>32</dim>
					<dim>104</dim>
					<dim>160</dim>
				</port>
				<port id="1" precision="FP32">
					<dim>60</dim>
					<dim>32</dim>
					<dim>1</dim>
					<dim>1</dim>
				</port>
			</input>
			<output>
				<port id="2" precision="FP32">
					<dim>1</dim>
					<dim>60</dim>
					<dim>104</dim>
					<dim>160</dim>
				</port>
			</output>
		</layer>
		<layer id="47" name="Reshape_548_compressed" type="Const" version="opset1">
			<data element_type="f16" shape="1, 60, 1, 1" offset="24728" size="120" />
			<output>
				<port id="0" precision="FP16">
					<dim>1</dim>
					<dim>60</dim>
					<dim>1</dim>
					<dim>1</dim>
				</port>
			</output>
		</layer>
		<layer id="48" name="Reshape_548" type="Convert" version="opset1">
			<data destination_type="f32" />
			<rt_info>
				<attribute name="decompression" version="0" />
			</rt_info>
			<input>
				<port id="0" precision="FP16">
					<dim>1</dim>
					<dim>60</dim>
					<dim>1</dim>
					<dim>1</dim>
				</port>
			</input>
			<output>
				<port id="1" precision="FP32">
					<dim>1</dim>
					<dim>60</dim>
					<dim>1</dim>
					<dim>1</dim>
				</port>
			</output>
		</layer>
		<layer id="49" name="Conv_18" type="Add" version="opset1">
			<data auto_broadcast="numpy" />
			<input>
				<port id="0" precision="FP32">
					<dim>1</dim>
					<dim>60</dim>
					<dim>104</dim>
					<dim>160</dim>
				</port>
				<port id="1" precision="FP32">
					<dim>1</dim>
					<dim>60</dim>
					<dim>1</dim>
					<dim>1</dim>
				</port>
			</input>
			<output>
				<port id="2" precision="FP32" names="onnx::Sigmoid_1126">
					<dim>1</dim>
					<dim>60</dim>
					<dim>104</dim>
					<dim>160</dim>
				</port>
			</output>
		</layer>
		<layer id="50" name="Mul_20" type="Swish" version="opset4">
			<input>
				<port id="0" precision="FP32">
					<dim>1</dim>
					<dim>60</dim>
					<dim>104</dim>
					<dim>160</dim>
				</port>
			</input>
			<output>
				<port id="1" precision="FP32" names="input.32">
					<dim>1</dim>
					<dim>60</dim>
					<dim>104</dim>
					<dim>160</dim>
				</port>
			</output>
		</layer>
		<layer id="51" name="Reshape_585_compressed" type="Const" version="opset1">
			<data element_type="f16" shape="60, 1, 1, 3, 3" offset="24848" size="1080" />
			<output>
				<port id="0" precision="FP16">
					<dim>60</dim>
					<dim>1</dim>
					<dim>1</dim>
					<dim>3</dim>
					<dim>3</dim>
				</port>
			</output>
		</layer>
		<layer id="52" name="Reshape_585" type="Convert" version="opset1">
			<data destination_type="f32" />
			<rt_info>
				<attribute name="decompression" version="0" />
			</rt_info>
			<input>
				<port id="0" precision="FP16">
					<dim>60</dim>
					<dim>1</dim>
					<dim>1</dim>
					<dim>3</dim>
					<dim>3</dim>
				</port>
			</input>
			<output>
				<port id="1" precision="FP32">
					<dim>60</dim>
					<dim>1</dim>
					<dim>1</dim>
					<dim>3</dim>
					<dim>3</dim>
				</port>
			</output>
		</layer>
		<layer id="53" name="Conv_21/WithoutBiases" type="GroupConvolution" version="opset1">
			<data strides="2, 2" pads_begin="1, 1" pads_end="1, 1" dilations="1, 1" auto_pad="explicit" />
			<input>
				<port id="0" precision="FP32">
					<dim>1</dim>
					<dim>60</dim>
					<dim>104</dim>
					<dim>160</dim>
				</port>
				<port id="1" precision="FP32">
					<dim>60</dim>
					<dim>1</dim>
					<dim>1</dim>
					<dim>3</dim>
					<dim>3</dim>
				</port>
			</input>
			<output>
				<port id="2" precision="FP32">
					<dim>1</dim>
					<dim>60</dim>
					<dim>52</dim>
					<dim>80</dim>
				</port>
			</output>
		</layer>
		<layer id="54" name="Reshape_671_compressed" type="Const" version="opset1">
			<data element_type="f16" shape="1, 60, 1, 1" offset="25928" size="120" />
			<output>
				<port id="0" precision="FP16">
					<dim>1</dim>
					<dim>60</dim>
					<dim>1</dim>
					<dim>1</dim>
				</port>
			</output>
		</layer>
		<layer id="55" name="Reshape_671" type="Convert" version="opset1">
			<data destination_type="f32" />
			<rt_info>
				<attribute name="decompression" version="0" />
			</rt_info>
			<input>
				<port id="0" precision="FP16">
					<dim>1</dim>
					<dim>60</dim>
					<dim>1</dim>
					<dim>1</dim>
				</port>
			</input>
			<output>
				<port id="1" precision="FP32">
					<dim>1</dim>
					<dim>60</dim>
					<dim>1</dim>
					<dim>1</dim>
				</port>
			</output>
		</layer>
		<layer id="56" name="Conv_21" type="Add" version="opset1">
			<data auto_broadcast="numpy" />
			<input>
				<port id="0" precision="FP32">
					<dim>1</dim>
					<dim>60</dim>
					<dim>52</dim>
					<dim>80</dim>
				</port>
				<port id="1" precision="FP32">
					<dim>1</dim>
					<dim>60</dim>
					<dim>1</dim>
					<dim>1</dim>
				</port>
			</input>
			<output>
				<port id="2" precision="FP32" names="input.40">
					<dim>1</dim>
					<dim>60</dim>
					<dim>52</dim>
					<dim>80</dim>
				</port>
			</output>
		</layer>
		<layer id="57" name="onnx::Conv_1133_compressed" type="Const" version="opset1">
			<data element_type="f16" shape="60, 60, 1, 1" offset="26048" size="7200" />
			<output>
				<port id="0" precision="FP16">
					<dim>60</dim>
					<dim>60</dim>
					<dim>1</dim>
					<dim>1</dim>
				</port>
			</output>
		</layer>
		<layer id="58" name="onnx::Conv_1133" type="Convert" version="opset1">
			<data destination_type="f32" />
			<rt_info>
				<attribute name="decompression" version="0" />
			</rt_info>
			<input>
				<port id="0" precision="FP16">
					<dim>60</dim>
					<dim>60</dim>
					<dim>1</dim>
					<dim>1</dim>
				</port>
			</input>
			<output>
				<port id="1" precision="FP32" names="onnx::Conv_1133">
					<dim>60</dim>
					<dim>60</dim>
					<dim>1</dim>
					<dim>1</dim>
				</port>
			</output>
		</layer>
		<layer id="59" name="Conv_22/WithoutBiases" type="Convolution" version="opset1">
			<data strides="1, 1" dilations="1, 1" pads_begin="0, 0" pads_end="0, 0" auto_pad="explicit" />
			<input>
				<port id="0" precision="FP32">
					<dim>1</dim>
					<dim>60</dim>
					<dim>52</dim>
					<dim>80</dim>
				</port>
				<port id="1" precision="FP32">
					<dim>60</dim>
					<dim>60</dim>
					<dim>1</dim>
					<dim>1</dim>
				</port>
			</input>
			<output>
				<port id="2" precision="FP32">
					<dim>1</dim>
					<dim>60</dim>
					<dim>52</dim>
					<dim>80</dim>
				</port>
			</output>
		</layer>
		<layer id="60" name="Reshape_719_compressed" type="Const" version="opset1">
			<data element_type="f16" shape="1, 60, 1, 1" offset="33248" size="120" />
			<output>
				<port id="0" precision="FP16">
					<dim>1</dim>
					<dim>60</dim>
					<dim>1</dim>
					<dim>1</dim>
				</port>
			</output>
		</layer>
		<layer id="61" name="Reshape_719" type="Convert" version="opset1">
			<data destination_type="f32" />
			<rt_info>
				<attribute name="decompression" version="0" />
			</rt_info>
			<input>
				<port id="0" precision="FP16">
					<dim>1</dim>
					<dim>60</dim>
					<dim>1</dim>
					<dim>1</dim>
				</port>
			</input>
			<output>
				<port id="1" precision="FP32">
					<dim>1</dim>
					<dim>60</dim>
					<dim>1</dim>
					<dim>1</dim>
				</port>
			</output>
		</layer>
		<layer id="62" name="Conv_22" type="Add" version="opset1">
			<data auto_broadcast="numpy" />
			<input>
				<port id="0" precision="FP32">
					<dim>1</dim>
					<dim>60</dim>
					<dim>52</dim>
					<dim>80</dim>
				</port>
				<port id="1" precision="FP32">
					<dim>1</dim>
					<dim>60</dim>
					<dim>1</dim>
					<dim>1</dim>
				</port>
			</input>
			<output>
				<port id="2" precision="FP32" names="onnx::Sigmoid_1132">
					<dim>1</dim>
					<dim>60</dim>
					<dim>52</dim>
					<dim>80</dim>
				</port>
			</output>
		</layer>
		<layer id="63" name="Mul_24" type="Swish" version="opset4">
			<input>
				<port id="0" precision="FP32">
					<dim>1</dim>
					<dim>60</dim>
					<dim>52</dim>
					<dim>80</dim>
				</port>
			</input>
			<output>
				<port id="1" precision="FP32" names="onnx::Concat_345">
					<dim>1</dim>
					<dim>60</dim>
					<dim>52</dim>
					<dim>80</dim>
				</port>
			</output>
		</layer>
		<layer id="64" name="Concat_25" type="Concat" version="opset1">
			<data axis="1" />
			<input>
				<port id="0" precision="FP32">
					<dim>1</dim>
					<dim>60</dim>
					<dim>52</dim>
					<dim>80</dim>
				</port>
				<port id="1" precision="FP32">
					<dim>1</dim>
					<dim>60</dim>
					<dim>52</dim>
					<dim>80</dim>
				</port>
			</input>
			<output>
				<port id="2" precision="FP32" names="out">
					<dim>1</dim>
					<dim>120</dim>
					<dim>52</dim>
					<dim>80</dim>
				</port>
			</output>
		</layer>
		<layer id="65" name="Constant_26" type="Const" version="opset1">
			<data element_type="i64" shape="5" offset="33368" size="40" />
			<output>
				<port id="0" precision="I64" names="onnx::Reshape_347">
					<dim>5</dim>
				</port>
			</output>
		</layer>
		<layer id="66" name="Reshape_27" type="Reshape" version="opset1">
			<data special_zero="true" />
			<input>
				<port id="0" precision="FP32">
					<dim>1</dim>
					<dim>120</dim>
					<dim>52</dim>
					<dim>80</dim>
				</port>
				<port id="1" precision="I64">
					<dim>5</dim>
				</port>
			</input>
			<output>
				<port id="2" precision="FP32" names="onnx::Transpose_348">
					<dim>1</dim>
					<dim>2</dim>
					<dim>60</dim>
					<dim>52</dim>
					<dim>80</dim>
				</port>
			</output>
		</layer>
		<layer id="67" name="Constant_757" type="Const" version="opset1">
			<data element_type="i64" shape="5" offset="33408" size="40" />
			<output>
				<port id="0" precision="I64">
					<dim>5</dim>
				</port>
			</output>
		</layer>
		<layer id="68" name="Transpose_28" type="Transpose" version="opset1">
			<input>
				<port id="0" precision="FP32">
					<dim>1</dim>
					<dim>2</dim>
					<dim>60</dim>
					<dim>52</dim>
					<dim>80</dim>
				</port>
				<port id="1" precision="I64">
					<dim>5</dim>
				</port>
			</input>
			<output>
				<port id="2" precision="FP32" names="onnx::Reshape_349">
					<dim>1</dim>
					<dim>60</dim>
					<dim>2</dim>
					<dim>52</dim>
					<dim>80</dim>
				</port>
			</output>
		</layer>
		<layer id="69" name="Constant_29" type="Const" version="opset1">
			<data element_type="i64" shape="4" offset="33448" size="32" />
			<output>
				<port id="0" precision="I64" names="onnx::Reshape_350">
					<dim>4</dim>
				</port>
			</output>
		</layer>
		<layer id="70" name="Reshape_30" type="Reshape" version="opset1">
			<data special_zero="true" />
			<input>
				<port id="0" precision="FP32">
					<dim>1</dim>
					<dim>60</dim>
					<dim>2</dim>
					<dim>52</dim>
					<dim>80</dim>
				</port>
				<port id="1" precision="I64">
					<dim>4</dim>
				</port>
			</input>
			<output>
				<port id="2" precision="FP32" names="onnx::Shape_351">
					<dim>1</dim>
					<dim>120</dim>
					<dim>52</dim>
					<dim>80</dim>
				</port>
			</output>
		</layer>
		<layer id="71" name="Constant_19634" type="Const" version="opset1">
			<data element_type="i64" shape="2" offset="33480" size="16" />
			<output>
				<port id="0" precision="I64">
					<dim>2</dim>
				</port>
			</output>
		</layer>
		<layer id="72" name="Constant_19635" type="Const" version="opset1">
			<data element_type="i64" shape="2" offset="33480" size="16" />
			<output>
				<port id="0" precision="I64">
					<dim>2</dim>
				</port>
			</output>
		</layer>
		<layer id="73" name="Constant_19631" type="Const" version="opset1">
			<data element_type="i64" shape="1" offset="33496" size="8" />
			<output>
				<port id="0" precision="I64">
					<dim>1</dim>
				</port>
			</output>
		</layer>
		<layer id="74" name="Shape_31" type="ShapeOf" version="opset3">
			<data output_type="i64" />
			<input>
				<port id="0" precision="FP32">
					<dim>1</dim>
					<dim>120</dim>
					<dim>52</dim>
					<dim>80</dim>
				</port>
			</input>
			<output>
				<port id="1" precision="I64" names="onnx::Gather_352">
					<dim>4</dim>
				</port>
			</output>
		</layer>
		<layer id="75" name="Constant_32" type="Const" version="opset1">
			<data element_type="i64" shape="1" offset="33496" size="8" />
			<output>
				<port id="0" precision="I64" names="onnx::Gather_353">
					<dim>1</dim>
				</port>
			</output>
		</layer>
		<layer id="76" name="Constant_768" type="Const" version="opset1">
			<data element_type="i64" shape="" offset="33504" size="8" />
			<output>
				<port id="0" precision="I64" />
			</output>
		</layer>
		<layer id="77" name="Gather_33" type="Gather" version="opset8">
			<data batch_dims="0" />
			<input>
				<port id="0" precision="I64">
					<dim>4</dim>
				</port>
				<port id="1" precision="I64">
					<dim>1</dim>
				</port>
				<port id="2" precision="I64" />
			</input>
			<output>
				<port id="3" precision="I64" names="onnx::Add_354">
					<dim>1</dim>
				</port>
			</output>
		</layer>
		<layer id="78" name="Constant_35" type="Const" version="opset1">
			<data element_type="i64" shape="1" offset="33496" size="8" />
			<output>
				<port id="0" precision="I64" names="onnx::Add_356">
					<dim>1</dim>
				</port>
			</output>
		</layer>
		<layer id="79" name="Add_36" type="Add" version="opset1">
			<data auto_broadcast="numpy" />
			<input>
				<port id="0" precision="I64">
					<dim>1</dim>
				</port>
				<port id="1" precision="I64">
					<dim>1</dim>
				</port>
			</input>
			<output>
				<port id="2" precision="I64" names="onnx::Div_357">
					<dim>1</dim>
				</port>
			</output>
		</layer>
		<layer id="80" name="Constant_37" type="Const" version="opset1">
			<data element_type="i64" shape="1" offset="33512" size="8" />
			<output>
				<port id="0" precision="I64" names="onnx::Div_358">
					<dim>1</dim>
				</port>
			</output>
		</layer>
		<layer id="81" name="Div_38" type="Divide" version="opset1">
			<data auto_broadcast="numpy" m_pythondiv="true" />
			<input>
				<port id="0" precision="I64">
					<dim>1</dim>
				</port>
				<port id="1" precision="I64">
					<dim>1</dim>
				</port>
			</input>
			<output>
				<port id="2" precision="I64" names="onnx::Mul_359,onnx::Slice_361">
					<dim>1</dim>
				</port>
			</output>
		</layer>
		<layer id="82" name="Constant_19630" type="Const" version="opset1">
			<data element_type="i32" shape="1" offset="33520" size="4" />
			<output>
				<port id="0" precision="I32">
					<dim>1</dim>
				</port>
			</output>
		</layer>
		<layer id="83" name="ScatterUpdate_19636" type="ScatterUpdate" version="opset3">
			<input>
				<port id="0" precision="I64">
					<dim>2</dim>
				</port>
				<port id="1" precision="I64">
					<dim>1</dim>
				</port>
				<port id="2" precision="I64">
					<dim>1</dim>
				</port>
				<port id="3" precision="I32">
					<dim>1</dim>
				</port>
			</input>
			<output>
				<port id="4" precision="I64">
					<dim>2</dim>
				</port>
			</output>
		</layer>
		<layer id="84" name="Constant_19639" type="Const" version="opset1">
			<data element_type="i64" shape="2" offset="33524" size="16" />
			<output>
				<port id="0" precision="I64">
					<dim>2</dim>
				</port>
			</output>
		</layer>
		<layer id="85" name="Slice_41" type="StridedSlice" version="opset1">
			<data begin_mask="1, 0" end_mask="1, 0" new_axis_mask="" shrink_axis_mask="" ellipsis_mask="" />
			<input>
				<port id="0" precision="FP32">
					<dim>1</dim>
					<dim>120</dim>
					<dim>52</dim>
					<dim>80</dim>
				</port>
				<port id="1" precision="I64">
					<dim>2</dim>
				</port>
				<port id="2" precision="I64">
					<dim>2</dim>
				</port>
				<port id="3" precision="I64">
					<dim>2</dim>
				</port>
			</input>
			<output>
				<port id="4" precision="FP32" names="onnx::Concat_362">
					<dim>1</dim>
					<dim>60</dim>
					<dim>52</dim>
					<dim>80</dim>
				</port>
			</output>
		</layer>
		<layer id="86" name="Constant_19703" type="Const" version="opset1">
			<data element_type="i64" shape="2" offset="33480" size="16" />
			<output>
				<port id="0" precision="I64">
					<dim>2</dim>
				</port>
			</output>
		</layer>
		<layer id="87" name="Constant_19702" type="Const" version="opset1">
			<data element_type="i64" shape="1" offset="33496" size="8" />
			<output>
				<port id="0" precision="I64">
					<dim>1</dim>
				</port>
			</output>
		</layer>
		<layer id="88" name="Constant_19701" type="Const" version="opset1">
			<data element_type="i32" shape="1" offset="33520" size="4" />
			<output>
				<port id="0" precision="I32">
					<dim>1</dim>
				</port>
			</output>
		</layer>
		<layer id="89" name="ScatterUpdate_19704" type="ScatterUpdate" version="opset3">
			<input>
				<port id="0" precision="I64">
					<dim>2</dim>
				</port>
				<port id="1" precision="I64">
					<dim>1</dim>
				</port>
				<port id="2" precision="I64">
					<dim>1</dim>
				</port>
				<port id="3" precision="I32">
					<dim>1</dim>
				</port>
			</input>
			<output>
				<port id="4" precision="I64">
					<dim>2</dim>
				</port>
			</output>
		</layer>
		<layer id="90" name="Constant_19705" type="Const" version="opset1">
			<data element_type="i64" shape="2" offset="33480" size="16" />
			<output>
				<port id="0" precision="I64">
					<dim>2</dim>
				</port>
			</output>
		</layer>
		<layer id="91" name="Constant_42" type="Const" version="opset1">
			<data element_type="i64" shape="1" offset="33512" size="8" />
			<output>
				<port id="0" precision="I64" names="onnx::Mul_363">
					<dim>1</dim>
				</port>
			</output>
		</layer>
		<layer id="92" name="Mul_43" type="Multiply" version="opset1">
			<data auto_broadcast="numpy" />
			<input>
				<port id="0" precision="I64">
					<dim>1</dim>
				</port>
				<port id="1" precision="I64">
					<dim>1</dim>
				</port>
			</input>
			<output>
				<port id="2" precision="I64" names="onnx::Slice_364">
					<dim>1</dim>
				</port>
			</output>
		</layer>
		<layer id="93" name="ScatterUpdate_19706" type="ScatterUpdate" version="opset3">
			<input>
				<port id="0" precision="I64">
					<dim>2</dim>
				</port>
				<port id="1" precision="I64">
					<dim>1</dim>
				</port>
				<port id="2" precision="I64">
					<dim>1</dim>
				</port>
				<port id="3" precision="I32">
					<dim>1</dim>
				</port>
			</input>
			<output>
				<port id="4" precision="I64">
					<dim>2</dim>
				</port>
			</output>
		</layer>
		<layer id="94" name="Constant_19709" type="Const" version="opset1">
			<data element_type="i64" shape="2" offset="33524" size="16" />
			<output>
				<port id="0" precision="I64">
					<dim>2</dim>
				</port>
			</output>
		</layer>
		<layer id="95" name="Slice_44" type="StridedSlice" version="opset1">
			<data begin_mask="1, 0" end_mask="1, 0" new_axis_mask="" shrink_axis_mask="" ellipsis_mask="" />
			<input>
				<port id="0" precision="FP32">
					<dim>1</dim>
					<dim>120</dim>
					<dim>52</dim>
					<dim>80</dim>
				</port>
				<port id="1" precision="I64">
					<dim>2</dim>
				</port>
				<port id="2" precision="I64">
					<dim>2</dim>
				</port>
				<port id="3" precision="I64">
					<dim>2</dim>
				</port>
			</input>
			<output>
				<port id="4" precision="FP32" names="onnx::Conv_365">
					<dim>1</dim>
					<dim>60</dim>
					<dim>52</dim>
					<dim>80</dim>
				</port>
			</output>
		</layer>
		<layer id="96" name="onnx::Conv_1136_compressed" type="Const" version="opset1">
			<data element_type="f16" shape="60, 60, 1, 1" offset="33540" size="7200" />
			<output>
				<port id="0" precision="FP16">
					<dim>60</dim>
					<dim>60</dim>
					<dim>1</dim>
					<dim>1</dim>
				</port>
			</output>
		</layer>
		<layer id="97" name="onnx::Conv_1136" type="Convert" version="opset1">
			<data destination_type="f32" />
			<rt_info>
				<attribute name="decompression" version="0" />
			</rt_info>
			<input>
				<port id="0" precision="FP16">
					<dim>60</dim>
					<dim>60</dim>
					<dim>1</dim>
					<dim>1</dim>
				</port>
			</input>
			<output>
				<port id="1" precision="FP32" names="onnx::Conv_1136">
					<dim>60</dim>
					<dim>60</dim>
					<dim>1</dim>
					<dim>1</dim>
				</port>
			</output>
		</layer>
		<layer id="98" name="Conv_45/WithoutBiases" type="Convolution" version="opset1">
			<data strides="1, 1" dilations="1, 1" pads_begin="0, 0" pads_end="0, 0" auto_pad="explicit" />
			<input>
				<port id="0" precision="FP32">
					<dim>1</dim>
					<dim>60</dim>
					<dim>52</dim>
					<dim>80</dim>
				</port>
				<port id="1" precision="FP32">
					<dim>60</dim>
					<dim>60</dim>
					<dim>1</dim>
					<dim>1</dim>
				</port>
			</input>
			<output>
				<port id="2" precision="FP32">
					<dim>1</dim>
					<dim>60</dim>
					<dim>52</dim>
					<dim>80</dim>
				</port>
			</output>
		</layer>
		<layer id="99" name="Reshape_934_compressed" type="Const" version="opset1">
			<data element_type="f16" shape="1, 60, 1, 1" offset="40740" size="120" />
			<output>
				<port id="0" precision="FP16">
					<dim>1</dim>
					<dim>60</dim>
					<dim>1</dim>
					<dim>1</dim>
				</port>
			</output>
		</layer>
		<layer id="100" name="Reshape_934" type="Convert" version="opset1">
			<data destination_type="f32" />
			<rt_info>
				<attribute name="decompression" version="0" />
			</rt_info>
			<input>
				<port id="0" precision="FP16">
					<dim>1</dim>
					<dim>60</dim>
					<dim>1</dim>
					<dim>1</dim>
				</port>
			</input>
			<output>
				<port id="1" precision="FP32">
					<dim>1</dim>
					<dim>60</dim>
					<dim>1</dim>
					<dim>1</dim>
				</port>
			</output>
		</layer>
		<layer id="101" name="Conv_45" type="Add" version="opset1">
			<data auto_broadcast="numpy" />
			<input>
				<port id="0" precision="FP32">
					<dim>1</dim>
					<dim>60</dim>
					<dim>52</dim>
					<dim>80</dim>
				</port>
				<port id="1" precision="FP32">
					<dim>1</dim>
					<dim>60</dim>
					<dim>1</dim>
					<dim>1</dim>
				</port>
			</input>
			<output>
				<port id="2" precision="FP32" names="onnx::Sigmoid_1135">
					<dim>1</dim>
					<dim>60</dim>
					<dim>52</dim>
					<dim>80</dim>
				</port>
			</output>
		</layer>
		<layer id="102" name="Mul_47" type="Swish" version="opset4">
			<input>
				<port id="0" precision="FP32">
					<dim>1</dim>
					<dim>60</dim>
					<dim>52</dim>
					<dim>80</dim>
				</port>
			</input>
			<output>
				<port id="1" precision="FP32" names="input.52">
					<dim>1</dim>
					<dim>60</dim>
					<dim>52</dim>
					<dim>80</dim>
				</port>
			</output>
		</layer>
		<layer id="103" name="Reshape_971_compressed" type="Const" version="opset1">
			<data element_type="f16" shape="60, 1, 1, 3, 3" offset="40860" size="1080" />
			<output>
				<port id="0" precision="FP16">
					<dim>60</dim>
					<dim>1</dim>
					<dim>1</dim>
					<dim>3</dim>
					<dim>3</dim>
				</port>
			</output>
		</layer>
		<layer id="104" name="Reshape_971" type="Convert" version="opset1">
			<data destination_type="f32" />
			<rt_info>
				<attribute name="decompression" version="0" />
			</rt_info>
			<input>
				<port id="0" precision="FP16">
					<dim>60</dim>
					<dim>1</dim>
					<dim>1</dim>
					<dim>3</dim>
					<dim>3</dim>
				</port>
			</input>
			<output>
				<port id="1" precision="FP32">
					<dim>60</dim>
					<dim>1</dim>
					<dim>1</dim>
					<dim>3</dim>
					<dim>3</dim>
				</port>
			</output>
		</layer>
		<layer id="105" name="Conv_48/WithoutBiases" type="GroupConvolution" version="opset1">
			<data strides="1, 1" pads_begin="1, 1" pads_end="1, 1" dilations="1, 1" auto_pad="explicit" />
			<input>
				<port id="0" precision="FP32">
					<dim>1</dim>
					<dim>60</dim>
					<dim>52</dim>
					<dim>80</dim>
				</port>
				<port id="1" precision="FP32">
					<dim>60</dim>
					<dim>1</dim>
					<dim>1</dim>
					<dim>3</dim>
					<dim>3</dim>
				</port>
			</input>
			<output>
				<port id="2" precision="FP32">
					<dim>1</dim>
					<dim>60</dim>
					<dim>52</dim>
					<dim>80</dim>
				</port>
			</output>
		</layer>
		<layer id="106" name="Reshape_1057_compressed" type="Const" version="opset1">
			<data element_type="f16" shape="1, 60, 1, 1" offset="41940" size="120" />
			<output>
				<port id="0" precision="FP16">
					<dim>1</dim>
					<dim>60</dim>
					<dim>1</dim>
					<dim>1</dim>
				</port>
			</output>
		</layer>
		<layer id="107" name="Reshape_1057" type="Convert" version="opset1">
			<data destination_type="f32" />
			<rt_info>
				<attribute name="decompression" version="0" />
			</rt_info>
			<input>
				<port id="0" precision="FP16">
					<dim>1</dim>
					<dim>60</dim>
					<dim>1</dim>
					<dim>1</dim>
				</port>
			</input>
			<output>
				<port id="1" precision="FP32">
					<dim>1</dim>
					<dim>60</dim>
					<dim>1</dim>
					<dim>1</dim>
				</port>
			</output>
		</layer>
		<layer id="108" name="Conv_48" type="Add" version="opset1">
			<data auto_broadcast="numpy" />
			<input>
				<port id="0" precision="FP32">
					<dim>1</dim>
					<dim>60</dim>
					<dim>52</dim>
					<dim>80</dim>
				</port>
				<port id="1" precision="FP32">
					<dim>1</dim>
					<dim>60</dim>
					<dim>1</dim>
					<dim>1</dim>
				</port>
			</input>
			<output>
				<port id="2" precision="FP32" names="input.60">
					<dim>1</dim>
					<dim>60</dim>
					<dim>52</dim>
					<dim>80</dim>
				</port>
			</output>
		</layer>
		<layer id="109" name="onnx::Conv_1142_compressed" type="Const" version="opset1">
			<data element_type="f16" shape="60, 60, 1, 1" offset="42060" size="7200" />
			<output>
				<port id="0" precision="FP16">
					<dim>60</dim>
					<dim>60</dim>
					<dim>1</dim>
					<dim>1</dim>
				</port>
			</output>
		</layer>
		<layer id="110" name="onnx::Conv_1142" type="Convert" version="opset1">
			<data destination_type="f32" />
			<rt_info>
				<attribute name="decompression" version="0" />
			</rt_info>
			<input>
				<port id="0" precision="FP16">
					<dim>60</dim>
					<dim>60</dim>
					<dim>1</dim>
					<dim>1</dim>
				</port>
			</input>
			<output>
				<port id="1" precision="FP32" names="onnx::Conv_1142">
					<dim>60</dim>
					<dim>60</dim>
					<dim>1</dim>
					<dim>1</dim>
				</port>
			</output>
		</layer>
		<layer id="111" name="Conv_49/WithoutBiases" type="Convolution" version="opset1">
			<data strides="1, 1" dilations="1, 1" pads_begin="0, 0" pads_end="0, 0" auto_pad="explicit" />
			<input>
				<port id="0" precision="FP32">
					<dim>1</dim>
					<dim>60</dim>
					<dim>52</dim>
					<dim>80</dim>
				</port>
				<port id="1" precision="FP32">
					<dim>60</dim>
					<dim>60</dim>
					<dim>1</dim>
					<dim>1</dim>
				</port>
			</input>
			<output>
				<port id="2" precision="FP32">
					<dim>1</dim>
					<dim>60</dim>
					<dim>52</dim>
					<dim>80</dim>
				</port>
			</output>
		</layer>
		<layer id="112" name="Reshape_1105_compressed" type="Const" version="opset1">
			<data element_type="f16" shape="1, 60, 1, 1" offset="49260" size="120" />
			<output>
				<port id="0" precision="FP16">
					<dim>1</dim>
					<dim>60</dim>
					<dim>1</dim>
					<dim>1</dim>
				</port>
			</output>
		</layer>
		<layer id="113" name="Reshape_1105" type="Convert" version="opset1">
			<data destination_type="f32" />
			<rt_info>
				<attribute name="decompression" version="0" />
			</rt_info>
			<input>
				<port id="0" precision="FP16">
					<dim>1</dim>
					<dim>60</dim>
					<dim>1</dim>
					<dim>1</dim>
				</port>
			</input>
			<output>
				<port id="1" precision="FP32">
					<dim>1</dim>
					<dim>60</dim>
					<dim>1</dim>
					<dim>1</dim>
				</port>
			</output>
		</layer>
		<layer id="114" name="Conv_49" type="Add" version="opset1">
			<data auto_broadcast="numpy" />
			<input>
				<port id="0" precision="FP32">
					<dim>1</dim>
					<dim>60</dim>
					<dim>52</dim>
					<dim>80</dim>
				</port>
				<port id="1" precision="FP32">
					<dim>1</dim>
					<dim>60</dim>
					<dim>1</dim>
					<dim>1</dim>
				</port>
			</input>
			<output>
				<port id="2" precision="FP32" names="onnx::Sigmoid_1141">
					<dim>1</dim>
					<dim>60</dim>
					<dim>52</dim>
					<dim>80</dim>
				</port>
			</output>
		</layer>
		<layer id="115" name="Mul_51" type="Swish" version="opset4">
			<input>
				<port id="0" precision="FP32">
					<dim>1</dim>
					<dim>60</dim>
					<dim>52</dim>
					<dim>80</dim>
				</port>
			</input>
			<output>
				<port id="1" precision="FP32" names="onnx::Concat_375">
					<dim>1</dim>
					<dim>60</dim>
					<dim>52</dim>
					<dim>80</dim>
				</port>
			</output>
		</layer>
		<layer id="116" name="Concat_52" type="Concat" version="opset1">
			<data axis="1" />
			<input>
				<port id="0" precision="FP32">
					<dim>1</dim>
					<dim>60</dim>
					<dim>52</dim>
					<dim>80</dim>
				</port>
				<port id="1" precision="FP32">
					<dim>1</dim>
					<dim>60</dim>
					<dim>52</dim>
					<dim>80</dim>
				</port>
			</input>
			<output>
				<port id="2" precision="FP32" names="out.3">
					<dim>1</dim>
					<dim>120</dim>
					<dim>52</dim>
					<dim>80</dim>
				</port>
			</output>
		</layer>
		<layer id="117" name="Constant_53" type="Const" version="opset1">
			<data element_type="i64" shape="5" offset="33368" size="40" />
			<output>
				<port id="0" precision="I64" names="onnx::Reshape_377">
					<dim>5</dim>
				</port>
			</output>
		</layer>
		<layer id="118" name="Reshape_54" type="Reshape" version="opset1">
			<data special_zero="true" />
			<input>
				<port id="0" precision="FP32">
					<dim>1</dim>
					<dim>120</dim>
					<dim>52</dim>
					<dim>80</dim>
				</port>
				<port id="1" precision="I64">
					<dim>5</dim>
				</port>
			</input>
			<output>
				<port id="2" precision="FP32" names="onnx::Transpose_378">
					<dim>1</dim>
					<dim>2</dim>
					<dim>60</dim>
					<dim>52</dim>
					<dim>80</dim>
				</port>
			</output>
		</layer>
		<layer id="119" name="Constant_1143" type="Const" version="opset1">
			<data element_type="i64" shape="5" offset="33408" size="40" />
			<output>
				<port id="0" precision="I64">
					<dim>5</dim>
				</port>
			</output>
		</layer>
		<layer id="120" name="Transpose_55" type="Transpose" version="opset1">
			<input>
				<port id="0" precision="FP32">
					<dim>1</dim>
					<dim>2</dim>
					<dim>60</dim>
					<dim>52</dim>
					<dim>80</dim>
				</port>
				<port id="1" precision="I64">
					<dim>5</dim>
				</port>
			</input>
			<output>
				<port id="2" precision="FP32" names="onnx::Reshape_379">
					<dim>1</dim>
					<dim>60</dim>
					<dim>2</dim>
					<dim>52</dim>
					<dim>80</dim>
				</port>
			</output>
		</layer>
		<layer id="121" name="Constant_56" type="Const" version="opset1">
			<data element_type="i64" shape="4" offset="33448" size="32" />
			<output>
				<port id="0" precision="I64" names="onnx::Reshape_380">
					<dim>4</dim>
				</port>
			</output>
		</layer>
		<layer id="122" name="Reshape_57" type="Reshape" version="opset1">
			<data special_zero="true" />
			<input>
				<port id="0" precision="FP32">
					<dim>1</dim>
					<dim>60</dim>
					<dim>2</dim>
					<dim>52</dim>
					<dim>80</dim>
				</port>
				<port id="1" precision="I64">
					<dim>4</dim>
				</port>
			</input>
			<output>
				<port id="2" precision="FP32" names="onnx::Shape_381">
					<dim>1</dim>
					<dim>120</dim>
					<dim>52</dim>
					<dim>80</dim>
				</port>
			</output>
		</layer>
		<layer id="123" name="Constant_19835" type="Const" version="opset1">
			<data element_type="i64" shape="2" offset="33480" size="16" />
			<output>
				<port id="0" precision="I64">
					<dim>2</dim>
				</port>
			</output>
		</layer>
		<layer id="124" name="Constant_19836" type="Const" version="opset1">
			<data element_type="i64" shape="2" offset="33480" size="16" />
			<output>
				<port id="0" precision="I64">
					<dim>2</dim>
				</port>
			</output>
		</layer>
		<layer id="125" name="Constant_19832" type="Const" version="opset1">
			<data element_type="i64" shape="1" offset="33496" size="8" />
			<output>
				<port id="0" precision="I64">
					<dim>1</dim>
				</port>
			</output>
		</layer>
		<layer id="126" name="Shape_58" type="ShapeOf" version="opset3">
			<data output_type="i64" />
			<input>
				<port id="0" precision="FP32">
					<dim>1</dim>
					<dim>120</dim>
					<dim>52</dim>
					<dim>80</dim>
				</port>
			</input>
			<output>
				<port id="1" precision="I64" names="onnx::Gather_382">
					<dim>4</dim>
				</port>
			</output>
		</layer>
		<layer id="127" name="Constant_59" type="Const" version="opset1">
			<data element_type="i64" shape="1" offset="33496" size="8" />
			<output>
				<port id="0" precision="I64" names="onnx::Gather_383">
					<dim>1</dim>
				</port>
			</output>
		</layer>
		<layer id="128" name="Constant_1154" type="Const" version="opset1">
			<data element_type="i64" shape="" offset="33504" size="8" />
			<output>
				<port id="0" precision="I64" />
			</output>
		</layer>
		<layer id="129" name="Gather_60" type="Gather" version="opset8">
			<data batch_dims="0" />
			<input>
				<port id="0" precision="I64">
					<dim>4</dim>
				</port>
				<port id="1" precision="I64">
					<dim>1</dim>
				</port>
				<port id="2" precision="I64" />
			</input>
			<output>
				<port id="3" precision="I64" names="onnx::Add_384">
					<dim>1</dim>
				</port>
			</output>
		</layer>
		<layer id="130" name="Constant_62" type="Const" version="opset1">
			<data element_type="i64" shape="1" offset="33496" size="8" />
			<output>
				<port id="0" precision="I64" names="onnx::Add_386">
					<dim>1</dim>
				</port>
			</output>
		</layer>
		<layer id="131" name="Add_63" type="Add" version="opset1">
			<data auto_broadcast="numpy" />
			<input>
				<port id="0" precision="I64">
					<dim>1</dim>
				</port>
				<port id="1" precision="I64">
					<dim>1</dim>
				</port>
			</input>
			<output>
				<port id="2" precision="I64" names="onnx::Div_387">
					<dim>1</dim>
				</port>
			</output>
		</layer>
		<layer id="132" name="Constant_64" type="Const" version="opset1">
			<data element_type="i64" shape="1" offset="33512" size="8" />
			<output>
				<port id="0" precision="I64" names="onnx::Div_388">
					<dim>1</dim>
				</port>
			</output>
		</layer>
		<layer id="133" name="Div_65" type="Divide" version="opset1">
			<data auto_broadcast="numpy" m_pythondiv="true" />
			<input>
				<port id="0" precision="I64">
					<dim>1</dim>
				</port>
				<port id="1" precision="I64">
					<dim>1</dim>
				</port>
			</input>
			<output>
				<port id="2" precision="I64" names="onnx::Mul_389,onnx::Slice_391">
					<dim>1</dim>
				</port>
			</output>
		</layer>
		<layer id="134" name="Constant_19831" type="Const" version="opset1">
			<data element_type="i32" shape="1" offset="33520" size="4" />
			<output>
				<port id="0" precision="I32">
					<dim>1</dim>
				</port>
			</output>
		</layer>
		<layer id="135" name="ScatterUpdate_19837" type="ScatterUpdate" version="opset3">
			<input>
				<port id="0" precision="I64">
					<dim>2</dim>
				</port>
				<port id="1" precision="I64">
					<dim>1</dim>
				</port>
				<port id="2" precision="I64">
					<dim>1</dim>
				</port>
				<port id="3" precision="I32">
					<dim>1</dim>
				</port>
			</input>
			<output>
				<port id="4" precision="I64">
					<dim>2</dim>
				</port>
			</output>
		</layer>
		<layer id="136" name="Constant_19840" type="Const" version="opset1">
			<data element_type="i64" shape="2" offset="33524" size="16" />
			<output>
				<port id="0" precision="I64">
					<dim>2</dim>
				</port>
			</output>
		</layer>
		<layer id="137" name="Slice_68" type="StridedSlice" version="opset1">
			<data begin_mask="1, 0" end_mask="1, 0" new_axis_mask="" shrink_axis_mask="" ellipsis_mask="" />
			<input>
				<port id="0" precision="FP32">
					<dim>1</dim>
					<dim>120</dim>
					<dim>52</dim>
					<dim>80</dim>
				</port>
				<port id="1" precision="I64">
					<dim>2</dim>
				</port>
				<port id="2" precision="I64">
					<dim>2</dim>
				</port>
				<port id="3" precision="I64">
					<dim>2</dim>
				</port>
			</input>
			<output>
				<port id="4" precision="FP32" names="onnx::Concat_392">
					<dim>1</dim>
					<dim>60</dim>
					<dim>52</dim>
					<dim>80</dim>
				</port>
			</output>
		</layer>
		<layer id="138" name="Constant_19904" type="Const" version="opset1">
			<data element_type="i64" shape="2" offset="33480" size="16" />
			<output>
				<port id="0" precision="I64">
					<dim>2</dim>
				</port>
			</output>
		</layer>
		<layer id="139" name="Constant_19903" type="Const" version="opset1">
			<data element_type="i64" shape="1" offset="33496" size="8" />
			<output>
				<port id="0" precision="I64">
					<dim>1</dim>
				</port>
			</output>
		</layer>
		<layer id="140" name="Constant_19902" type="Const" version="opset1">
			<data element_type="i32" shape="1" offset="33520" size="4" />
			<output>
				<port id="0" precision="I32">
					<dim>1</dim>
				</port>
			</output>
		</layer>
		<layer id="141" name="ScatterUpdate_19905" type="ScatterUpdate" version="opset3">
			<input>
				<port id="0" precision="I64">
					<dim>2</dim>
				</port>
				<port id="1" precision="I64">
					<dim>1</dim>
				</port>
				<port id="2" precision="I64">
					<dim>1</dim>
				</port>
				<port id="3" precision="I32">
					<dim>1</dim>
				</port>
			</input>
			<output>
				<port id="4" precision="I64">
					<dim>2</dim>
				</port>
			</output>
		</layer>
		<layer id="142" name="Constant_19906" type="Const" version="opset1">
			<data element_type="i64" shape="2" offset="33480" size="16" />
			<output>
				<port id="0" precision="I64">
					<dim>2</dim>
				</port>
			</output>
		</layer>
		<layer id="143" name="Constant_69" type="Const" version="opset1">
			<data element_type="i64" shape="1" offset="33512" size="8" />
			<output>
				<port id="0" precision="I64" names="onnx::Mul_393">
					<dim>1</dim>
				</port>
			</output>
		</layer>
		<layer id="144" name="Mul_70" type="Multiply" version="opset1">
			<data auto_broadcast="numpy" />
			<input>
				<port id="0" precision="I64">
					<dim>1</dim>
				</port>
				<port id="1" precision="I64">
					<dim>1</dim>
				</port>
			</input>
			<output>
				<port id="2" precision="I64" names="onnx::Slice_394">
					<dim>1</dim>
				</port>
			</output>
		</layer>
		<layer id="145" name="ScatterUpdate_19907" type="ScatterUpdate" version="opset3">
			<input>
				<port id="0" precision="I64">
					<dim>2</dim>
				</port>
				<port id="1" precision="I64">
					<dim>1</dim>
				</port>
				<port id="2" precision="I64">
					<dim>1</dim>
				</port>
				<port id="3" precision="I32">
					<dim>1</dim>
				</port>
			</input>
			<output>
				<port id="4" precision="I64">
					<dim>2</dim>
				</port>
			</output>
		</layer>
		<layer id="146" name="Constant_19910" type="Const" version="opset1">
			<data element_type="i64" shape="2" offset="33524" size="16" />
			<output>
				<port id="0" precision="I64">
					<dim>2</dim>
				</port>
			</output>
		</layer>
		<layer id="147" name="Slice_71" type="StridedSlice" version="opset1">
			<data begin_mask="1, 0" end_mask="1, 0" new_axis_mask="" shrink_axis_mask="" ellipsis_mask="" />
			<input>
				<port id="0" precision="FP32">
					<dim>1</dim>
					<dim>120</dim>
					<dim>52</dim>
					<dim>80</dim>
				</port>
				<port id="1" precision="I64">
					<dim>2</dim>
				</port>
				<port id="2" precision="I64">
					<dim>2</dim>
				</port>
				<port id="3" precision="I64">
					<dim>2</dim>
				</port>
			</input>
			<output>
				<port id="4" precision="FP32" names="onnx::Conv_395">
					<dim>1</dim>
					<dim>60</dim>
					<dim>52</dim>
					<dim>80</dim>
				</port>
			</output>
		</layer>
		<layer id="148" name="onnx::Conv_1145_compressed" type="Const" version="opset1">
			<data element_type="f16" shape="60, 60, 1, 1" offset="49380" size="7200" />
			<output>
				<port id="0" precision="FP16">
					<dim>60</dim>
					<dim>60</dim>
					<dim>1</dim>
					<dim>1</dim>
				</port>
			</output>
		</layer>
		<layer id="149" name="onnx::Conv_1145" type="Convert" version="opset1">
			<data destination_type="f32" />
			<rt_info>
				<attribute name="decompression" version="0" />
			</rt_info>
			<input>
				<port id="0" precision="FP16">
					<dim>60</dim>
					<dim>60</dim>
					<dim>1</dim>
					<dim>1</dim>
				</port>
			</input>
			<output>
				<port id="1" precision="FP32" names="onnx::Conv_1145">
					<dim>60</dim>
					<dim>60</dim>
					<dim>1</dim>
					<dim>1</dim>
				</port>
			</output>
		</layer>
		<layer id="150" name="Conv_72/WithoutBiases" type="Convolution" version="opset1">
			<data strides="1, 1" dilations="1, 1" pads_begin="0, 0" pads_end="0, 0" auto_pad="explicit" />
			<input>
				<port id="0" precision="FP32">
					<dim>1</dim>
					<dim>60</dim>
					<dim>52</dim>
					<dim>80</dim>
				</port>
				<port id="1" precision="FP32">
					<dim>60</dim>
					<dim>60</dim>
					<dim>1</dim>
					<dim>1</dim>
				</port>
			</input>
			<output>
				<port id="2" precision="FP32">
					<dim>1</dim>
					<dim>60</dim>
					<dim>52</dim>
					<dim>80</dim>
				</port>
			</output>
		</layer>
		<layer id="151" name="Reshape_1320_compressed" type="Const" version="opset1">
			<data element_type="f16" shape="1, 60, 1, 1" offset="56580" size="120" />
			<output>
				<port id="0" precision="FP16">
					<dim>1</dim>
					<dim>60</dim>
					<dim>1</dim>
					<dim>1</dim>
				</port>
			</output>
		</layer>
		<layer id="152" name="Reshape_1320" type="Convert" version="opset1">
			<data destination_type="f32" />
			<rt_info>
				<attribute name="decompression" version="0" />
			</rt_info>
			<input>
				<port id="0" precision="FP16">
					<dim>1</dim>
					<dim>60</dim>
					<dim>1</dim>
					<dim>1</dim>
				</port>
			</input>
			<output>
				<port id="1" precision="FP32">
					<dim>1</dim>
					<dim>60</dim>
					<dim>1</dim>
					<dim>1</dim>
				</port>
			</output>
		</layer>
		<layer id="153" name="Conv_72" type="Add" version="opset1">
			<data auto_broadcast="numpy" />
			<input>
				<port id="0" precision="FP32">
					<dim>1</dim>
					<dim>60</dim>
					<dim>52</dim>
					<dim>80</dim>
				</port>
				<port id="1" precision="FP32">
					<dim>1</dim>
					<dim>60</dim>
					<dim>1</dim>
					<dim>1</dim>
				</port>
			</input>
			<output>
				<port id="2" precision="FP32" names="onnx::Sigmoid_1144">
					<dim>1</dim>
					<dim>60</dim>
					<dim>52</dim>
					<dim>80</dim>
				</port>
			</output>
		</layer>
		<layer id="154" name="Mul_74" type="Swish" version="opset4">
			<input>
				<port id="0" precision="FP32">
					<dim>1</dim>
					<dim>60</dim>
					<dim>52</dim>
					<dim>80</dim>
				</port>
			</input>
			<output>
				<port id="1" precision="FP32" names="input.72">
					<dim>1</dim>
					<dim>60</dim>
					<dim>52</dim>
					<dim>80</dim>
				</port>
			</output>
		</layer>
		<layer id="155" name="Reshape_1357_compressed" type="Const" version="opset1">
			<data element_type="f16" shape="60, 1, 1, 3, 3" offset="56700" size="1080" />
			<output>
				<port id="0" precision="FP16">
					<dim>60</dim>
					<dim>1</dim>
					<dim>1</dim>
					<dim>3</dim>
					<dim>3</dim>
				</port>
			</output>
		</layer>
		<layer id="156" name="Reshape_1357" type="Convert" version="opset1">
			<data destination_type="f32" />
			<rt_info>
				<attribute name="decompression" version="0" />
			</rt_info>
			<input>
				<port id="0" precision="FP16">
					<dim>60</dim>
					<dim>1</dim>
					<dim>1</dim>
					<dim>3</dim>
					<dim>3</dim>
				</port>
			</input>
			<output>
				<port id="1" precision="FP32">
					<dim>60</dim>
					<dim>1</dim>
					<dim>1</dim>
					<dim>3</dim>
					<dim>3</dim>
				</port>
			</output>
		</layer>
		<layer id="157" name="Conv_75/WithoutBiases" type="GroupConvolution" version="opset1">
			<data strides="1, 1" pads_begin="1, 1" pads_end="1, 1" dilations="1, 1" auto_pad="explicit" />
			<input>
				<port id="0" precision="FP32">
					<dim>1</dim>
					<dim>60</dim>
					<dim>52</dim>
					<dim>80</dim>
				</port>
				<port id="1" precision="FP32">
					<dim>60</dim>
					<dim>1</dim>
					<dim>1</dim>
					<dim>3</dim>
					<dim>3</dim>
				</port>
			</input>
			<output>
				<port id="2" precision="FP32">
					<dim>1</dim>
					<dim>60</dim>
					<dim>52</dim>
					<dim>80</dim>
				</port>
			</output>
		</layer>
		<layer id="158" name="Reshape_1443_compressed" type="Const" version="opset1">
			<data element_type="f16" shape="1, 60, 1, 1" offset="57780" size="120" />
			<output>
				<port id="0" precision="FP16">
					<dim>1</dim>
					<dim>60</dim>
					<dim>1</dim>
					<dim>1</dim>
				</port>
			</output>
		</layer>
		<layer id="159" name="Reshape_1443" type="Convert" version="opset1">
			<data destination_type="f32" />
			<rt_info>
				<attribute name="decompression" version="0" />
			</rt_info>
			<input>
				<port id="0" precision="FP16">
					<dim>1</dim>
					<dim>60</dim>
					<dim>1</dim>
					<dim>1</dim>
				</port>
			</input>
			<output>
				<port id="1" precision="FP32">
					<dim>1</dim>
					<dim>60</dim>
					<dim>1</dim>
					<dim>1</dim>
				</port>
			</output>
		</layer>
		<layer id="160" name="Conv_75" type="Add" version="opset1">
			<data auto_broadcast="numpy" />
			<input>
				<port id="0" precision="FP32">
					<dim>1</dim>
					<dim>60</dim>
					<dim>52</dim>
					<dim>80</dim>
				</port>
				<port id="1" precision="FP32">
					<dim>1</dim>
					<dim>60</dim>
					<dim>1</dim>
					<dim>1</dim>
				</port>
			</input>
			<output>
				<port id="2" precision="FP32" names="input.80">
					<dim>1</dim>
					<dim>60</dim>
					<dim>52</dim>
					<dim>80</dim>
				</port>
			</output>
		</layer>
		<layer id="161" name="onnx::Conv_1151_compressed" type="Const" version="opset1">
			<data element_type="f16" shape="60, 60, 1, 1" offset="57900" size="7200" />
			<output>
				<port id="0" precision="FP16">
					<dim>60</dim>
					<dim>60</dim>
					<dim>1</dim>
					<dim>1</dim>
				</port>
			</output>
		</layer>
		<layer id="162" name="onnx::Conv_1151" type="Convert" version="opset1">
			<data destination_type="f32" />
			<rt_info>
				<attribute name="decompression" version="0" />
			</rt_info>
			<input>
				<port id="0" precision="FP16">
					<dim>60</dim>
					<dim>60</dim>
					<dim>1</dim>
					<dim>1</dim>
				</port>
			</input>
			<output>
				<port id="1" precision="FP32" names="onnx::Conv_1151">
					<dim>60</dim>
					<dim>60</dim>
					<dim>1</dim>
					<dim>1</dim>
				</port>
			</output>
		</layer>
		<layer id="163" name="Conv_76/WithoutBiases" type="Convolution" version="opset1">
			<data strides="1, 1" dilations="1, 1" pads_begin="0, 0" pads_end="0, 0" auto_pad="explicit" />
			<input>
				<port id="0" precision="FP32">
					<dim>1</dim>
					<dim>60</dim>
					<dim>52</dim>
					<dim>80</dim>
				</port>
				<port id="1" precision="FP32">
					<dim>60</dim>
					<dim>60</dim>
					<dim>1</dim>
					<dim>1</dim>
				</port>
			</input>
			<output>
				<port id="2" precision="FP32">
					<dim>1</dim>
					<dim>60</dim>
					<dim>52</dim>
					<dim>80</dim>
				</port>
			</output>
		</layer>
		<layer id="164" name="Reshape_1491_compressed" type="Const" version="opset1">
			<data element_type="f16" shape="1, 60, 1, 1" offset="65100" size="120" />
			<output>
				<port id="0" precision="FP16">
					<dim>1</dim>
					<dim>60</dim>
					<dim>1</dim>
					<dim>1</dim>
				</port>
			</output>
		</layer>
		<layer id="165" name="Reshape_1491" type="Convert" version="opset1">
			<data destination_type="f32" />
			<rt_info>
				<attribute name="decompression" version="0" />
			</rt_info>
			<input>
				<port id="0" precision="FP16">
					<dim>1</dim>
					<dim>60</dim>
					<dim>1</dim>
					<dim>1</dim>
				</port>
			</input>
			<output>
				<port id="1" precision="FP32">
					<dim>1</dim>
					<dim>60</dim>
					<dim>1</dim>
					<dim>1</dim>
				</port>
			</output>
		</layer>
		<layer id="166" name="Conv_76" type="Add" version="opset1">
			<data auto_broadcast="numpy" />
			<input>
				<port id="0" precision="FP32">
					<dim>1</dim>
					<dim>60</dim>
					<dim>52</dim>
					<dim>80</dim>
				</port>
				<port id="1" precision="FP32">
					<dim>1</dim>
					<dim>60</dim>
					<dim>1</dim>
					<dim>1</dim>
				</port>
			</input>
			<output>
				<port id="2" precision="FP32" names="onnx::Sigmoid_1150">
					<dim>1</dim>
					<dim>60</dim>
					<dim>52</dim>
					<dim>80</dim>
				</port>
			</output>
		</layer>
		<layer id="167" name="Mul_78" type="Swish" version="opset4">
			<input>
				<port id="0" precision="FP32">
					<dim>1</dim>
					<dim>60</dim>
					<dim>52</dim>
					<dim>80</dim>
				</port>
			</input>
			<output>
				<port id="1" precision="FP32" names="onnx::Concat_405">
					<dim>1</dim>
					<dim>60</dim>
					<dim>52</dim>
					<dim>80</dim>
				</port>
			</output>
		</layer>
		<layer id="168" name="Concat_79" type="Concat" version="opset1">
			<data axis="1" />
			<input>
				<port id="0" precision="FP32">
					<dim>1</dim>
					<dim>60</dim>
					<dim>52</dim>
					<dim>80</dim>
				</port>
				<port id="1" precision="FP32">
					<dim>1</dim>
					<dim>60</dim>
					<dim>52</dim>
					<dim>80</dim>
				</port>
			</input>
			<output>
				<port id="2" precision="FP32" names="out.7">
					<dim>1</dim>
					<dim>120</dim>
					<dim>52</dim>
					<dim>80</dim>
				</port>
			</output>
		</layer>
		<layer id="169" name="Constant_80" type="Const" version="opset1">
			<data element_type="i64" shape="5" offset="33368" size="40" />
			<output>
				<port id="0" precision="I64" names="onnx::Reshape_407">
					<dim>5</dim>
				</port>
			</output>
		</layer>
		<layer id="170" name="Reshape_81" type="Reshape" version="opset1">
			<data special_zero="true" />
			<input>
				<port id="0" precision="FP32">
					<dim>1</dim>
					<dim>120</dim>
					<dim>52</dim>
					<dim>80</dim>
				</port>
				<port id="1" precision="I64">
					<dim>5</dim>
				</port>
			</input>
			<output>
				<port id="2" precision="FP32" names="onnx::Transpose_408">
					<dim>1</dim>
					<dim>2</dim>
					<dim>60</dim>
					<dim>52</dim>
					<dim>80</dim>
				</port>
			</output>
		</layer>
		<layer id="171" name="Constant_1529" type="Const" version="opset1">
			<data element_type="i64" shape="5" offset="33408" size="40" />
			<output>
				<port id="0" precision="I64">
					<dim>5</dim>
				</port>
			</output>
		</layer>
		<layer id="172" name="Transpose_82" type="Transpose" version="opset1">
			<input>
				<port id="0" precision="FP32">
					<dim>1</dim>
					<dim>2</dim>
					<dim>60</dim>
					<dim>52</dim>
					<dim>80</dim>
				</port>
				<port id="1" precision="I64">
					<dim>5</dim>
				</port>
			</input>
			<output>
				<port id="2" precision="FP32" names="onnx::Reshape_409">
					<dim>1</dim>
					<dim>60</dim>
					<dim>2</dim>
					<dim>52</dim>
					<dim>80</dim>
				</port>
			</output>
		</layer>
		<layer id="173" name="Constant_83" type="Const" version="opset1">
			<data element_type="i64" shape="4" offset="33448" size="32" />
			<output>
				<port id="0" precision="I64" names="onnx::Reshape_410">
					<dim>4</dim>
				</port>
			</output>
		</layer>
		<layer id="174" name="Reshape_84" type="Reshape" version="opset1">
			<data special_zero="true" />
			<input>
				<port id="0" precision="FP32">
					<dim>1</dim>
					<dim>60</dim>
					<dim>2</dim>
					<dim>52</dim>
					<dim>80</dim>
				</port>
				<port id="1" precision="I64">
					<dim>4</dim>
				</port>
			</input>
			<output>
				<port id="2" precision="FP32" names="input.88">
					<dim>1</dim>
					<dim>120</dim>
					<dim>52</dim>
					<dim>80</dim>
				</port>
			</output>
		</layer>
		<layer id="175" name="Reshape_1545_compressed" type="Const" version="opset1">
			<data element_type="f16" shape="120, 1, 1, 3, 3" offset="65220" size="2160" />
			<output>
				<port id="0" precision="FP16">
					<dim>120</dim>
					<dim>1</dim>
					<dim>1</dim>
					<dim>3</dim>
					<dim>3</dim>
				</port>
			</output>
		</layer>
		<layer id="176" name="Reshape_1545" type="Convert" version="opset1">
			<data destination_type="f32" />
			<rt_info>
				<attribute name="decompression" version="0" />
			</rt_info>
			<input>
				<port id="0" precision="FP16">
					<dim>120</dim>
					<dim>1</dim>
					<dim>1</dim>
					<dim>3</dim>
					<dim>3</dim>
				</port>
			</input>
			<output>
				<port id="1" precision="FP32">
					<dim>120</dim>
					<dim>1</dim>
					<dim>1</dim>
					<dim>3</dim>
					<dim>3</dim>
				</port>
			</output>
		</layer>
		<layer id="177" name="Conv_85/WithoutBiases" type="GroupConvolution" version="opset1">
			<data strides="2, 2" pads_begin="1, 1" pads_end="1, 1" dilations="1, 1" auto_pad="explicit" />
			<input>
				<port id="0" precision="FP32">
					<dim>1</dim>
					<dim>120</dim>
					<dim>52</dim>
					<dim>80</dim>
				</port>
				<port id="1" precision="FP32">
					<dim>120</dim>
					<dim>1</dim>
					<dim>1</dim>
					<dim>3</dim>
					<dim>3</dim>
				</port>
			</input>
			<output>
				<port id="2" precision="FP32">
					<dim>1</dim>
					<dim>120</dim>
					<dim>26</dim>
					<dim>40</dim>
				</port>
			</output>
		</layer>
		<layer id="178" name="Reshape_1631_compressed" type="Const" version="opset1">
			<data element_type="f16" shape="1, 120, 1, 1" offset="67380" size="240" />
			<output>
				<port id="0" precision="FP16">
					<dim>1</dim>
					<dim>120</dim>
					<dim>1</dim>
					<dim>1</dim>
				</port>
			</output>
		</layer>
		<layer id="179" name="Reshape_1631" type="Convert" version="opset1">
			<data destination_type="f32" />
			<rt_info>
				<attribute name="decompression" version="0" />
			</rt_info>
			<input>
				<port id="0" precision="FP16">
					<dim>1</dim>
					<dim>120</dim>
					<dim>1</dim>
					<dim>1</dim>
				</port>
			</input>
			<output>
				<port id="1" precision="FP32">
					<dim>1</dim>
					<dim>120</dim>
					<dim>1</dim>
					<dim>1</dim>
				</port>
			</output>
		</layer>
		<layer id="180" name="Conv_85" type="Add" version="opset1">
			<data auto_broadcast="numpy" />
			<input>
				<port id="0" precision="FP32">
					<dim>1</dim>
					<dim>120</dim>
					<dim>26</dim>
					<dim>40</dim>
				</port>
				<port id="1" precision="FP32">
					<dim>1</dim>
					<dim>120</dim>
					<dim>1</dim>
					<dim>1</dim>
				</port>
			</input>
			<output>
				<port id="2" precision="FP32" names="input.96">
					<dim>1</dim>
					<dim>120</dim>
					<dim>26</dim>
					<dim>40</dim>
				</port>
			</output>
		</layer>
		<layer id="181" name="onnx::Conv_1157_compressed" type="Const" version="opset1">
			<data element_type="f16" shape="116, 120, 1, 1" offset="67620" size="27840" />
			<output>
				<port id="0" precision="FP16">
					<dim>116</dim>
					<dim>120</dim>
					<dim>1</dim>
					<dim>1</dim>
				</port>
			</output>
		</layer>
		<layer id="182" name="onnx::Conv_1157" type="Convert" version="opset1">
			<data destination_type="f32" />
			<rt_info>
				<attribute name="decompression" version="0" />
			</rt_info>
			<input>
				<port id="0" precision="FP16">
					<dim>116</dim>
					<dim>120</dim>
					<dim>1</dim>
					<dim>1</dim>
				</port>
			</input>
			<output>
				<port id="1" precision="FP32" names="onnx::Conv_1157">
					<dim>116</dim>
					<dim>120</dim>
					<dim>1</dim>
					<dim>1</dim>
				</port>
			</output>
		</layer>
		<layer id="183" name="Conv_86/WithoutBiases" type="Convolution" version="opset1">
			<data strides="1, 1" dilations="1, 1" pads_begin="0, 0" pads_end="0, 0" auto_pad="explicit" />
			<input>
				<port id="0" precision="FP32">
					<dim>1</dim>
					<dim>120</dim>
					<dim>26</dim>
					<dim>40</dim>
				</port>
				<port id="1" precision="FP32">
					<dim>116</dim>
					<dim>120</dim>
					<dim>1</dim>
					<dim>1</dim>
				</port>
			</input>
			<output>
				<port id="2" precision="FP32">
					<dim>1</dim>
					<dim>116</dim>
					<dim>26</dim>
					<dim>40</dim>
				</port>
			</output>
		</layer>
		<layer id="184" name="Reshape_1679_compressed" type="Const" version="opset1">
			<data element_type="f16" shape="1, 116, 1, 1" offset="95460" size="232" />
			<output>
				<port id="0" precision="FP16">
					<dim>1</dim>
					<dim>116</dim>
					<dim>1</dim>
					<dim>1</dim>
				</port>
			</output>
		</layer>
		<layer id="185" name="Reshape_1679" type="Convert" version="opset1">
			<data destination_type="f32" />
			<rt_info>
				<attribute name="decompression" version="0" />
			</rt_info>
			<input>
				<port id="0" precision="FP16">
					<dim>1</dim>
					<dim>116</dim>
					<dim>1</dim>
					<dim>1</dim>
				</port>
			</input>
			<output>
				<port id="1" precision="FP32">
					<dim>1</dim>
					<dim>116</dim>
					<dim>1</dim>
					<dim>1</dim>
				</port>
			</output>
		</layer>
		<layer id="186" name="Conv_86" type="Add" version="opset1">
			<data auto_broadcast="numpy" />
			<input>
				<port id="0" precision="FP32">
					<dim>1</dim>
					<dim>116</dim>
					<dim>26</dim>
					<dim>40</dim>
				</port>
				<port id="1" precision="FP32">
					<dim>1</dim>
					<dim>116</dim>
					<dim>1</dim>
					<dim>1</dim>
				</port>
			</input>
			<output>
				<port id="2" precision="FP32" names="onnx::Sigmoid_1156">
					<dim>1</dim>
					<dim>116</dim>
					<dim>26</dim>
					<dim>40</dim>
				</port>
			</output>
		</layer>
		<layer id="187" name="Mul_88" type="Swish" version="opset4">
			<input>
				<port id="0" precision="FP32">
					<dim>1</dim>
					<dim>116</dim>
					<dim>26</dim>
					<dim>40</dim>
				</port>
			</input>
			<output>
				<port id="1" precision="FP32" names="onnx::Concat_417">
					<dim>1</dim>
					<dim>116</dim>
					<dim>26</dim>
					<dim>40</dim>
				</port>
			</output>
		</layer>
		<layer id="188" name="onnx::Conv_1160_compressed" type="Const" version="opset1">
			<data element_type="f16" shape="116, 120, 1, 1" offset="95692" size="27840" />
			<output>
				<port id="0" precision="FP16">
					<dim>116</dim>
					<dim>120</dim>
					<dim>1</dim>
					<dim>1</dim>
				</port>
			</output>
		</layer>
		<layer id="189" name="onnx::Conv_1160" type="Convert" version="opset1">
			<data destination_type="f32" />
			<rt_info>
				<attribute name="decompression" version="0" />
			</rt_info>
			<input>
				<port id="0" precision="FP16">
					<dim>116</dim>
					<dim>120</dim>
					<dim>1</dim>
					<dim>1</dim>
				</port>
			</input>
			<output>
				<port id="1" precision="FP32" names="onnx::Conv_1160">
					<dim>116</dim>
					<dim>120</dim>
					<dim>1</dim>
					<dim>1</dim>
				</port>
			</output>
		</layer>
		<layer id="190" name="Conv_89/WithoutBiases" type="Convolution" version="opset1">
			<data strides="1, 1" dilations="1, 1" pads_begin="0, 0" pads_end="0, 0" auto_pad="explicit" />
			<input>
				<port id="0" precision="FP32">
					<dim>1</dim>
					<dim>120</dim>
					<dim>52</dim>
					<dim>80</dim>
				</port>
				<port id="1" precision="FP32">
					<dim>116</dim>
					<dim>120</dim>
					<dim>1</dim>
					<dim>1</dim>
				</port>
			</input>
			<output>
				<port id="2" precision="FP32">
					<dim>1</dim>
					<dim>116</dim>
					<dim>52</dim>
					<dim>80</dim>
				</port>
			</output>
		</layer>
		<layer id="191" name="Reshape_1729_compressed" type="Const" version="opset1">
			<data element_type="f16" shape="1, 116, 1, 1" offset="123532" size="232" />
			<output>
				<port id="0" precision="FP16">
					<dim>1</dim>
					<dim>116</dim>
					<dim>1</dim>
					<dim>1</dim>
				</port>
			</output>
		</layer>
		<layer id="192" name="Reshape_1729" type="Convert" version="opset1">
			<data destination_type="f32" />
			<rt_info>
				<attribute name="decompression" version="0" />
			</rt_info>
			<input>
				<port id="0" precision="FP16">
					<dim>1</dim>
					<dim>116</dim>
					<dim>1</dim>
					<dim>1</dim>
				</port>
			</input>
			<output>
				<port id="1" precision="FP32">
					<dim>1</dim>
					<dim>116</dim>
					<dim>1</dim>
					<dim>1</dim>
				</port>
			</output>
		</layer>
		<layer id="193" name="Conv_89" type="Add" version="opset1">
			<data auto_broadcast="numpy" />
			<input>
				<port id="0" precision="FP32">
					<dim>1</dim>
					<dim>116</dim>
					<dim>52</dim>
					<dim>80</dim>
				</port>
				<port id="1" precision="FP32">
					<dim>1</dim>
					<dim>116</dim>
					<dim>1</dim>
					<dim>1</dim>
				</port>
			</input>
			<output>
				<port id="2" precision="FP32" names="onnx::Sigmoid_1159">
					<dim>1</dim>
					<dim>116</dim>
					<dim>52</dim>
					<dim>80</dim>
				</port>
			</output>
		</layer>
		<layer id="194" name="Mul_91" type="Swish" version="opset4">
			<input>
				<port id="0" precision="FP32">
					<dim>1</dim>
					<dim>116</dim>
					<dim>52</dim>
					<dim>80</dim>
				</port>
			</input>
			<output>
				<port id="1" precision="FP32" names="input.108">
					<dim>1</dim>
					<dim>116</dim>
					<dim>52</dim>
					<dim>80</dim>
				</port>
			</output>
		</layer>
		<layer id="195" name="Reshape_1766_compressed" type="Const" version="opset1">
			<data element_type="f16" shape="116, 1, 1, 3, 3" offset="123764" size="2088" />
			<output>
				<port id="0" precision="FP16">
					<dim>116</dim>
					<dim>1</dim>
					<dim>1</dim>
					<dim>3</dim>
					<dim>3</dim>
				</port>
			</output>
		</layer>
		<layer id="196" name="Reshape_1766" type="Convert" version="opset1">
			<data destination_type="f32" />
			<rt_info>
				<attribute name="decompression" version="0" />
			</rt_info>
			<input>
				<port id="0" precision="FP16">
					<dim>116</dim>
					<dim>1</dim>
					<dim>1</dim>
					<dim>3</dim>
					<dim>3</dim>
				</port>
			</input>
			<output>
				<port id="1" precision="FP32">
					<dim>116</dim>
					<dim>1</dim>
					<dim>1</dim>
					<dim>3</dim>
					<dim>3</dim>
				</port>
			</output>
		</layer>
		<layer id="197" name="Conv_92/WithoutBiases" type="GroupConvolution" version="opset1">
			<data strides="2, 2" pads_begin="1, 1" pads_end="1, 1" dilations="1, 1" auto_pad="explicit" />
			<input>
				<port id="0" precision="FP32">
					<dim>1</dim>
					<dim>116</dim>
					<dim>52</dim>
					<dim>80</dim>
				</port>
				<port id="1" precision="FP32">
					<dim>116</dim>
					<dim>1</dim>
					<dim>1</dim>
					<dim>3</dim>
					<dim>3</dim>
				</port>
			</input>
			<output>
				<port id="2" precision="FP32">
					<dim>1</dim>
					<dim>116</dim>
					<dim>26</dim>
					<dim>40</dim>
				</port>
			</output>
		</layer>
		<layer id="198" name="Reshape_1852_compressed" type="Const" version="opset1">
			<data element_type="f16" shape="1, 116, 1, 1" offset="125852" size="232" />
			<output>
				<port id="0" precision="FP16">
					<dim>1</dim>
					<dim>116</dim>
					<dim>1</dim>
					<dim>1</dim>
				</port>
			</output>
		</layer>
		<layer id="199" name="Reshape_1852" type="Convert" version="opset1">
			<data destination_type="f32" />
			<rt_info>
				<attribute name="decompression" version="0" />
			</rt_info>
			<input>
				<port id="0" precision="FP16">
					<dim>1</dim>
					<dim>116</dim>
					<dim>1</dim>
					<dim>1</dim>
				</port>
			</input>
			<output>
				<port id="1" precision="FP32">
					<dim>1</dim>
					<dim>116</dim>
					<dim>1</dim>
					<dim>1</dim>
				</port>
			</output>
		</layer>
		<layer id="200" name="Conv_92" type="Add" version="opset1">
			<data auto_broadcast="numpy" />
			<input>
				<port id="0" precision="FP32">
					<dim>1</dim>
					<dim>116</dim>
					<dim>26</dim>
					<dim>40</dim>
				</port>
				<port id="1" precision="FP32">
					<dim>1</dim>
					<dim>116</dim>
					<dim>1</dim>
					<dim>1</dim>
				</port>
			</input>
			<output>
				<port id="2" precision="FP32" names="input.116">
					<dim>1</dim>
					<dim>116</dim>
					<dim>26</dim>
					<dim>40</dim>
				</port>
			</output>
		</layer>
		<layer id="201" name="onnx::Conv_1166_compressed" type="Const" version="opset1">
			<data element_type="f16" shape="116, 116, 1, 1" offset="126084" size="26912" />
			<output>
				<port id="0" precision="FP16">
					<dim>116</dim>
					<dim>116</dim>
					<dim>1</dim>
					<dim>1</dim>
				</port>
			</output>
		</layer>
		<layer id="202" name="onnx::Conv_1166" type="Convert" version="opset1">
			<data destination_type="f32" />
			<rt_info>
				<attribute name="decompression" version="0" />
			</rt_info>
			<input>
				<port id="0" precision="FP16">
					<dim>116</dim>
					<dim>116</dim>
					<dim>1</dim>
					<dim>1</dim>
				</port>
			</input>
			<output>
				<port id="1" precision="FP32" names="onnx::Conv_1166">
					<dim>116</dim>
					<dim>116</dim>
					<dim>1</dim>
					<dim>1</dim>
				</port>
			</output>
		</layer>
		<layer id="203" name="Conv_93/WithoutBiases" type="Convolution" version="opset1">
			<data strides="1, 1" dilations="1, 1" pads_begin="0, 0" pads_end="0, 0" auto_pad="explicit" />
			<input>
				<port id="0" precision="FP32">
					<dim>1</dim>
					<dim>116</dim>
					<dim>26</dim>
					<dim>40</dim>
				</port>
				<port id="1" precision="FP32">
					<dim>116</dim>
					<dim>116</dim>
					<dim>1</dim>
					<dim>1</dim>
				</port>
			</input>
			<output>
				<port id="2" precision="FP32">
					<dim>1</dim>
					<dim>116</dim>
					<dim>26</dim>
					<dim>40</dim>
				</port>
			</output>
		</layer>
		<layer id="204" name="Reshape_1900_compressed" type="Const" version="opset1">
			<data element_type="f16" shape="1, 116, 1, 1" offset="152996" size="232" />
			<output>
				<port id="0" precision="FP16">
					<dim>1</dim>
					<dim>116</dim>
					<dim>1</dim>
					<dim>1</dim>
				</port>
			</output>
		</layer>
		<layer id="205" name="Reshape_1900" type="Convert" version="opset1">
			<data destination_type="f32" />
			<rt_info>
				<attribute name="decompression" version="0" />
			</rt_info>
			<input>
				<port id="0" precision="FP16">
					<dim>1</dim>
					<dim>116</dim>
					<dim>1</dim>
					<dim>1</dim>
				</port>
			</input>
			<output>
				<port id="1" precision="FP32">
					<dim>1</dim>
					<dim>116</dim>
					<dim>1</dim>
					<dim>1</dim>
				</port>
			</output>
		</layer>
		<layer id="206" name="Conv_93" type="Add" version="opset1">
			<data auto_broadcast="numpy" />
			<input>
				<port id="0" precision="FP32">
					<dim>1</dim>
					<dim>116</dim>
					<dim>26</dim>
					<dim>40</dim>
				</port>
				<port id="1" precision="FP32">
					<dim>1</dim>
					<dim>116</dim>
					<dim>1</dim>
					<dim>1</dim>
				</port>
			</input>
			<output>
				<port id="2" precision="FP32" names="onnx::Sigmoid_1165">
					<dim>1</dim>
					<dim>116</dim>
					<dim>26</dim>
					<dim>40</dim>
				</port>
			</output>
		</layer>
		<layer id="207" name="Mul_95" type="Swish" version="opset4">
			<input>
				<port id="0" precision="FP32">
					<dim>1</dim>
					<dim>116</dim>
					<dim>26</dim>
					<dim>40</dim>
				</port>
			</input>
			<output>
				<port id="1" precision="FP32" names="onnx::Concat_427">
					<dim>1</dim>
					<dim>116</dim>
					<dim>26</dim>
					<dim>40</dim>
				</port>
			</output>
		</layer>
		<layer id="208" name="Concat_96" type="Concat" version="opset1">
			<data axis="1" />
			<input>
				<port id="0" precision="FP32">
					<dim>1</dim>
					<dim>116</dim>
					<dim>26</dim>
					<dim>40</dim>
				</port>
				<port id="1" precision="FP32">
					<dim>1</dim>
					<dim>116</dim>
					<dim>26</dim>
					<dim>40</dim>
				</port>
			</input>
			<output>
				<port id="2" precision="FP32" names="out.11">
					<dim>1</dim>
					<dim>232</dim>
					<dim>26</dim>
					<dim>40</dim>
				</port>
			</output>
		</layer>
		<layer id="209" name="Constant_97" type="Const" version="opset1">
			<data element_type="i64" shape="5" offset="153228" size="40" />
			<output>
				<port id="0" precision="I64" names="onnx::Reshape_429">
					<dim>5</dim>
				</port>
			</output>
		</layer>
		<layer id="210" name="Reshape_98" type="Reshape" version="opset1">
			<data special_zero="true" />
			<input>
				<port id="0" precision="FP32">
					<dim>1</dim>
					<dim>232</dim>
					<dim>26</dim>
					<dim>40</dim>
				</port>
				<port id="1" precision="I64">
					<dim>5</dim>
				</port>
			</input>
			<output>
				<port id="2" precision="FP32" names="onnx::Transpose_430">
					<dim>1</dim>
					<dim>2</dim>
					<dim>116</dim>
					<dim>26</dim>
					<dim>40</dim>
				</port>
			</output>
		</layer>
		<layer id="211" name="Constant_1938" type="Const" version="opset1">
			<data element_type="i64" shape="5" offset="33408" size="40" />
			<output>
				<port id="0" precision="I64">
					<dim>5</dim>
				</port>
			</output>
		</layer>
		<layer id="212" name="Transpose_99" type="Transpose" version="opset1">
			<input>
				<port id="0" precision="FP32">
					<dim>1</dim>
					<dim>2</dim>
					<dim>116</dim>
					<dim>26</dim>
					<dim>40</dim>
				</port>
				<port id="1" precision="I64">
					<dim>5</dim>
				</port>
			</input>
			<output>
				<port id="2" precision="FP32" names="onnx::Reshape_431">
					<dim>1</dim>
					<dim>116</dim>
					<dim>2</dim>
					<dim>26</dim>
					<dim>40</dim>
				</port>
			</output>
		</layer>
		<layer id="213" name="Constant_100" type="Const" version="opset1">
			<data element_type="i64" shape="4" offset="153268" size="32" />
			<output>
				<port id="0" precision="I64" names="onnx::Reshape_432">
					<dim>4</dim>
				</port>
			</output>
		</layer>
		<layer id="214" name="Reshape_101" type="Reshape" version="opset1">
			<data special_zero="true" />
			<input>
				<port id="0" precision="FP32">
					<dim>1</dim>
					<dim>116</dim>
					<dim>2</dim>
					<dim>26</dim>
					<dim>40</dim>
				</port>
				<port id="1" precision="I64">
					<dim>4</dim>
				</port>
			</input>
			<output>
				<port id="2" precision="FP32" names="onnx::Shape_433">
					<dim>1</dim>
					<dim>232</dim>
					<dim>26</dim>
					<dim>40</dim>
				</port>
			</output>
		</layer>
		<layer id="215" name="Constant_20036" type="Const" version="opset1">
			<data element_type="i64" shape="2" offset="33480" size="16" />
			<output>
				<port id="0" precision="I64">
					<dim>2</dim>
				</port>
			</output>
		</layer>
		<layer id="216" name="Constant_20037" type="Const" version="opset1">
			<data element_type="i64" shape="2" offset="33480" size="16" />
			<output>
				<port id="0" precision="I64">
					<dim>2</dim>
				</port>
			</output>
		</layer>
		<layer id="217" name="Constant_20033" type="Const" version="opset1">
			<data element_type="i64" shape="1" offset="33496" size="8" />
			<output>
				<port id="0" precision="I64">
					<dim>1</dim>
				</port>
			</output>
		</layer>
		<layer id="218" name="Shape_102" type="ShapeOf" version="opset3">
			<data output_type="i64" />
			<input>
				<port id="0" precision="FP32">
					<dim>1</dim>
					<dim>232</dim>
					<dim>26</dim>
					<dim>40</dim>
				</port>
			</input>
			<output>
				<port id="1" precision="I64" names="onnx::Gather_434">
					<dim>4</dim>
				</port>
			</output>
		</layer>
		<layer id="219" name="Constant_103" type="Const" version="opset1">
			<data element_type="i64" shape="1" offset="33496" size="8" />
			<output>
				<port id="0" precision="I64" names="onnx::Gather_435">
					<dim>1</dim>
				</port>
			</output>
		</layer>
		<layer id="220" name="Constant_1949" type="Const" version="opset1">
			<data element_type="i64" shape="" offset="33504" size="8" />
			<output>
				<port id="0" precision="I64" />
			</output>
		</layer>
		<layer id="221" name="Gather_104" type="Gather" version="opset8">
			<data batch_dims="0" />
			<input>
				<port id="0" precision="I64">
					<dim>4</dim>
				</port>
				<port id="1" precision="I64">
					<dim>1</dim>
				</port>
				<port id="2" precision="I64" />
			</input>
			<output>
				<port id="3" precision="I64" names="onnx::Add_436">
					<dim>1</dim>
				</port>
			</output>
		</layer>
		<layer id="222" name="Constant_106" type="Const" version="opset1">
			<data element_type="i64" shape="1" offset="33496" size="8" />
			<output>
				<port id="0" precision="I64" names="onnx::Add_438">
					<dim>1</dim>
				</port>
			</output>
		</layer>
		<layer id="223" name="Add_107" type="Add" version="opset1">
			<data auto_broadcast="numpy" />
			<input>
				<port id="0" precision="I64">
					<dim>1</dim>
				</port>
				<port id="1" precision="I64">
					<dim>1</dim>
				</port>
			</input>
			<output>
				<port id="2" precision="I64" names="onnx::Div_439">
					<dim>1</dim>
				</port>
			</output>
		</layer>
		<layer id="224" name="Constant_108" type="Const" version="opset1">
			<data element_type="i64" shape="1" offset="33512" size="8" />
			<output>
				<port id="0" precision="I64" names="onnx::Div_440">
					<dim>1</dim>
				</port>
			</output>
		</layer>
		<layer id="225" name="Div_109" type="Divide" version="opset1">
			<data auto_broadcast="numpy" m_pythondiv="true" />
			<input>
				<port id="0" precision="I64">
					<dim>1</dim>
				</port>
				<port id="1" precision="I64">
					<dim>1</dim>
				</port>
			</input>
			<output>
				<port id="2" precision="I64" names="onnx::Mul_441,onnx::Slice_443">
					<dim>1</dim>
				</port>
			</output>
		</layer>
		<layer id="226" name="Constant_20032" type="Const" version="opset1">
			<data element_type="i32" shape="1" offset="33520" size="4" />
			<output>
				<port id="0" precision="I32">
					<dim>1</dim>
				</port>
			</output>
		</layer>
		<layer id="227" name="ScatterUpdate_20038" type="ScatterUpdate" version="opset3">
			<input>
				<port id="0" precision="I64">
					<dim>2</dim>
				</port>
				<port id="1" precision="I64">
					<dim>1</dim>
				</port>
				<port id="2" precision="I64">
					<dim>1</dim>
				</port>
				<port id="3" precision="I32">
					<dim>1</dim>
				</port>
			</input>
			<output>
				<port id="4" precision="I64">
					<dim>2</dim>
				</port>
			</output>
		</layer>
		<layer id="228" name="Constant_20041" type="Const" version="opset1">
			<data element_type="i64" shape="2" offset="33524" size="16" />
			<output>
				<port id="0" precision="I64">
					<dim>2</dim>
				</port>
			</output>
		</layer>
		<layer id="229" name="Slice_112" type="StridedSlice" version="opset1">
			<data begin_mask="1, 0" end_mask="1, 0" new_axis_mask="" shrink_axis_mask="" ellipsis_mask="" />
			<input>
				<port id="0" precision="FP32">
					<dim>1</dim>
					<dim>232</dim>
					<dim>26</dim>
					<dim>40</dim>
				</port>
				<port id="1" precision="I64">
					<dim>2</dim>
				</port>
				<port id="2" precision="I64">
					<dim>2</dim>
				</port>
				<port id="3" precision="I64">
					<dim>2</dim>
				</port>
			</input>
			<output>
				<port id="4" precision="FP32" names="onnx::Concat_444">
					<dim>1</dim>
					<dim>116</dim>
					<dim>26</dim>
					<dim>40</dim>
				</port>
			</output>
		</layer>
		<layer id="230" name="Constant_20105" type="Const" version="opset1">
			<data element_type="i64" shape="2" offset="33480" size="16" />
			<output>
				<port id="0" precision="I64">
					<dim>2</dim>
				</port>
			</output>
		</layer>
		<layer id="231" name="Constant_20104" type="Const" version="opset1">
			<data element_type="i64" shape="1" offset="33496" size="8" />
			<output>
				<port id="0" precision="I64">
					<dim>1</dim>
				</port>
			</output>
		</layer>
		<layer id="232" name="Constant_20103" type="Const" version="opset1">
			<data element_type="i32" shape="1" offset="33520" size="4" />
			<output>
				<port id="0" precision="I32">
					<dim>1</dim>
				</port>
			</output>
		</layer>
		<layer id="233" name="ScatterUpdate_20106" type="ScatterUpdate" version="opset3">
			<input>
				<port id="0" precision="I64">
					<dim>2</dim>
				</port>
				<port id="1" precision="I64">
					<dim>1</dim>
				</port>
				<port id="2" precision="I64">
					<dim>1</dim>
				</port>
				<port id="3" precision="I32">
					<dim>1</dim>
				</port>
			</input>
			<output>
				<port id="4" precision="I64">
					<dim>2</dim>
				</port>
			</output>
		</layer>
		<layer id="234" name="Constant_20107" type="Const" version="opset1">
			<data element_type="i64" shape="2" offset="33480" size="16" />
			<output>
				<port id="0" precision="I64">
					<dim>2</dim>
				</port>
			</output>
		</layer>
		<layer id="235" name="Constant_113" type="Const" version="opset1">
			<data element_type="i64" shape="1" offset="33512" size="8" />
			<output>
				<port id="0" precision="I64" names="onnx::Mul_445">
					<dim>1</dim>
				</port>
			</output>
		</layer>
		<layer id="236" name="Mul_114" type="Multiply" version="opset1">
			<data auto_broadcast="numpy" />
			<input>
				<port id="0" precision="I64">
					<dim>1</dim>
				</port>
				<port id="1" precision="I64">
					<dim>1</dim>
				</port>
			</input>
			<output>
				<port id="2" precision="I64" names="onnx::Slice_446">
					<dim>1</dim>
				</port>
			</output>
		</layer>
		<layer id="237" name="ScatterUpdate_20108" type="ScatterUpdate" version="opset3">
			<input>
				<port id="0" precision="I64">
					<dim>2</dim>
				</port>
				<port id="1" precision="I64">
					<dim>1</dim>
				</port>
				<port id="2" precision="I64">
					<dim>1</dim>
				</port>
				<port id="3" precision="I32">
					<dim>1</dim>
				</port>
			</input>
			<output>
				<port id="4" precision="I64">
					<dim>2</dim>
				</port>
			</output>
		</layer>
		<layer id="238" name="Constant_20111" type="Const" version="opset1">
			<data element_type="i64" shape="2" offset="33524" size="16" />
			<output>
				<port id="0" precision="I64">
					<dim>2</dim>
				</port>
			</output>
		</layer>
		<layer id="239" name="Slice_115" type="StridedSlice" version="opset1">
			<data begin_mask="1, 0" end_mask="1, 0" new_axis_mask="" shrink_axis_mask="" ellipsis_mask="" />
			<input>
				<port id="0" precision="FP32">
					<dim>1</dim>
					<dim>232</dim>
					<dim>26</dim>
					<dim>40</dim>
				</port>
				<port id="1" precision="I64">
					<dim>2</dim>
				</port>
				<port id="2" precision="I64">
					<dim>2</dim>
				</port>
				<port id="3" precision="I64">
					<dim>2</dim>
				</port>
			</input>
			<output>
				<port id="4" precision="FP32" names="onnx::Conv_447">
					<dim>1</dim>
					<dim>116</dim>
					<dim>26</dim>
					<dim>40</dim>
				</port>
			</output>
		</layer>
		<layer id="240" name="onnx::Conv_1169_compressed" type="Const" version="opset1">
			<data element_type="f16" shape="116, 116, 1, 1" offset="153300" size="26912" />
			<output>
				<port id="0" precision="FP16">
					<dim>116</dim>
					<dim>116</dim>
					<dim>1</dim>
					<dim>1</dim>
				</port>
			</output>
		</layer>
		<layer id="241" name="onnx::Conv_1169" type="Convert" version="opset1">
			<data destination_type="f32" />
			<rt_info>
				<attribute name="decompression" version="0" />
			</rt_info>
			<input>
				<port id="0" precision="FP16">
					<dim>116</dim>
					<dim>116</dim>
					<dim>1</dim>
					<dim>1</dim>
				</port>
			</input>
			<output>
				<port id="1" precision="FP32" names="onnx::Conv_1169">
					<dim>116</dim>
					<dim>116</dim>
					<dim>1</dim>
					<dim>1</dim>
				</port>
			</output>
		</layer>
		<layer id="242" name="Conv_116/WithoutBiases" type="Convolution" version="opset1">
			<data strides="1, 1" dilations="1, 1" pads_begin="0, 0" pads_end="0, 0" auto_pad="explicit" />
			<input>
				<port id="0" precision="FP32">
					<dim>1</dim>
					<dim>116</dim>
					<dim>26</dim>
					<dim>40</dim>
				</port>
				<port id="1" precision="FP32">
					<dim>116</dim>
					<dim>116</dim>
					<dim>1</dim>
					<dim>1</dim>
				</port>
			</input>
			<output>
				<port id="2" precision="FP32">
					<dim>1</dim>
					<dim>116</dim>
					<dim>26</dim>
					<dim>40</dim>
				</port>
			</output>
		</layer>
		<layer id="243" name="Reshape_2115_compressed" type="Const" version="opset1">
			<data element_type="f16" shape="1, 116, 1, 1" offset="180212" size="232" />
			<output>
				<port id="0" precision="FP16">
					<dim>1</dim>
					<dim>116</dim>
					<dim>1</dim>
					<dim>1</dim>
				</port>
			</output>
		</layer>
		<layer id="244" name="Reshape_2115" type="Convert" version="opset1">
			<data destination_type="f32" />
			<rt_info>
				<attribute name="decompression" version="0" />
			</rt_info>
			<input>
				<port id="0" precision="FP16">
					<dim>1</dim>
					<dim>116</dim>
					<dim>1</dim>
					<dim>1</dim>
				</port>
			</input>
			<output>
				<port id="1" precision="FP32">
					<dim>1</dim>
					<dim>116</dim>
					<dim>1</dim>
					<dim>1</dim>
				</port>
			</output>
		</layer>
		<layer id="245" name="Conv_116" type="Add" version="opset1">
			<data auto_broadcast="numpy" />
			<input>
				<port id="0" precision="FP32">
					<dim>1</dim>
					<dim>116</dim>
					<dim>26</dim>
					<dim>40</dim>
				</port>
				<port id="1" precision="FP32">
					<dim>1</dim>
					<dim>116</dim>
					<dim>1</dim>
					<dim>1</dim>
				</port>
			</input>
			<output>
				<port id="2" precision="FP32" names="onnx::Sigmoid_1168">
					<dim>1</dim>
					<dim>116</dim>
					<dim>26</dim>
					<dim>40</dim>
				</port>
			</output>
		</layer>
		<layer id="246" name="Mul_118" type="Swish" version="opset4">
			<input>
				<port id="0" precision="FP32">
					<dim>1</dim>
					<dim>116</dim>
					<dim>26</dim>
					<dim>40</dim>
				</port>
			</input>
			<output>
				<port id="1" precision="FP32" names="input.128">
					<dim>1</dim>
					<dim>116</dim>
					<dim>26</dim>
					<dim>40</dim>
				</port>
			</output>
		</layer>
		<layer id="247" name="Reshape_2152_compressed" type="Const" version="opset1">
			<data element_type="f16" shape="116, 1, 1, 3, 3" offset="180444" size="2088" />
			<output>
				<port id="0" precision="FP16">
					<dim>116</dim>
					<dim>1</dim>
					<dim>1</dim>
					<dim>3</dim>
					<dim>3</dim>
				</port>
			</output>
		</layer>
		<layer id="248" name="Reshape_2152" type="Convert" version="opset1">
			<data destination_type="f32" />
			<rt_info>
				<attribute name="decompression" version="0" />
			</rt_info>
			<input>
				<port id="0" precision="FP16">
					<dim>116</dim>
					<dim>1</dim>
					<dim>1</dim>
					<dim>3</dim>
					<dim>3</dim>
				</port>
			</input>
			<output>
				<port id="1" precision="FP32">
					<dim>116</dim>
					<dim>1</dim>
					<dim>1</dim>
					<dim>3</dim>
					<dim>3</dim>
				</port>
			</output>
		</layer>
		<layer id="249" name="Conv_119/WithoutBiases" type="GroupConvolution" version="opset1">
			<data strides="1, 1" pads_begin="1, 1" pads_end="1, 1" dilations="1, 1" auto_pad="explicit" />
			<input>
				<port id="0" precision="FP32">
					<dim>1</dim>
					<dim>116</dim>
					<dim>26</dim>
					<dim>40</dim>
				</port>
				<port id="1" precision="FP32">
					<dim>116</dim>
					<dim>1</dim>
					<dim>1</dim>
					<dim>3</dim>
					<dim>3</dim>
				</port>
			</input>
			<output>
				<port id="2" precision="FP32">
					<dim>1</dim>
					<dim>116</dim>
					<dim>26</dim>
					<dim>40</dim>
				</port>
			</output>
		</layer>
		<layer id="250" name="Reshape_2238_compressed" type="Const" version="opset1">
			<data element_type="f16" shape="1, 116, 1, 1" offset="182532" size="232" />
			<output>
				<port id="0" precision="FP16">
					<dim>1</dim>
					<dim>116</dim>
					<dim>1</dim>
					<dim>1</dim>
				</port>
			</output>
		</layer>
		<layer id="251" name="Reshape_2238" type="Convert" version="opset1">
			<data destination_type="f32" />
			<rt_info>
				<attribute name="decompression" version="0" />
			</rt_info>
			<input>
				<port id="0" precision="FP16">
					<dim>1</dim>
					<dim>116</dim>
					<dim>1</dim>
					<dim>1</dim>
				</port>
			</input>
			<output>
				<port id="1" precision="FP32">
					<dim>1</dim>
					<dim>116</dim>
					<dim>1</dim>
					<dim>1</dim>
				</port>
			</output>
		</layer>
		<layer id="252" name="Conv_119" type="Add" version="opset1">
			<data auto_broadcast="numpy" />
			<input>
				<port id="0" precision="FP32">
					<dim>1</dim>
					<dim>116</dim>
					<dim>26</dim>
					<dim>40</dim>
				</port>
				<port id="1" precision="FP32">
					<dim>1</dim>
					<dim>116</dim>
					<dim>1</dim>
					<dim>1</dim>
				</port>
			</input>
			<output>
				<port id="2" precision="FP32" names="input.136">
					<dim>1</dim>
					<dim>116</dim>
					<dim>26</dim>
					<dim>40</dim>
				</port>
			</output>
		</layer>
		<layer id="253" name="onnx::Conv_1175_compressed" type="Const" version="opset1">
			<data element_type="f16" shape="116, 116, 1, 1" offset="182764" size="26912" />
			<output>
				<port id="0" precision="FP16">
					<dim>116</dim>
					<dim>116</dim>
					<dim>1</dim>
					<dim>1</dim>
				</port>
			</output>
		</layer>
		<layer id="254" name="onnx::Conv_1175" type="Convert" version="opset1">
			<data destination_type="f32" />
			<rt_info>
				<attribute name="decompression" version="0" />
			</rt_info>
			<input>
				<port id="0" precision="FP16">
					<dim>116</dim>
					<dim>116</dim>
					<dim>1</dim>
					<dim>1</dim>
				</port>
			</input>
			<output>
				<port id="1" precision="FP32" names="onnx::Conv_1175">
					<dim>116</dim>
					<dim>116</dim>
					<dim>1</dim>
					<dim>1</dim>
				</port>
			</output>
		</layer>
		<layer id="255" name="Conv_120/WithoutBiases" type="Convolution" version="opset1">
			<data strides="1, 1" dilations="1, 1" pads_begin="0, 0" pads_end="0, 0" auto_pad="explicit" />
			<input>
				<port id="0" precision="FP32">
					<dim>1</dim>
					<dim>116</dim>
					<dim>26</dim>
					<dim>40</dim>
				</port>
				<port id="1" precision="FP32">
					<dim>116</dim>
					<dim>116</dim>
					<dim>1</dim>
					<dim>1</dim>
				</port>
			</input>
			<output>
				<port id="2" precision="FP32">
					<dim>1</dim>
					<dim>116</dim>
					<dim>26</dim>
					<dim>40</dim>
				</port>
			</output>
		</layer>
		<layer id="256" name="Reshape_2286_compressed" type="Const" version="opset1">
			<data element_type="f16" shape="1, 116, 1, 1" offset="209676" size="232" />
			<output>
				<port id="0" precision="FP16">
					<dim>1</dim>
					<dim>116</dim>
					<dim>1</dim>
					<dim>1</dim>
				</port>
			</output>
		</layer>
		<layer id="257" name="Reshape_2286" type="Convert" version="opset1">
			<data destination_type="f32" />
			<rt_info>
				<attribute name="decompression" version="0" />
			</rt_info>
			<input>
				<port id="0" precision="FP16">
					<dim>1</dim>
					<dim>116</dim>
					<dim>1</dim>
					<dim>1</dim>
				</port>
			</input>
			<output>
				<port id="1" precision="FP32">
					<dim>1</dim>
					<dim>116</dim>
					<dim>1</dim>
					<dim>1</dim>
				</port>
			</output>
		</layer>
		<layer id="258" name="Conv_120" type="Add" version="opset1">
			<data auto_broadcast="numpy" />
			<input>
				<port id="0" precision="FP32">
					<dim>1</dim>
					<dim>116</dim>
					<dim>26</dim>
					<dim>40</dim>
				</port>
				<port id="1" precision="FP32">
					<dim>1</dim>
					<dim>116</dim>
					<dim>1</dim>
					<dim>1</dim>
				</port>
			</input>
			<output>
				<port id="2" precision="FP32" names="onnx::Sigmoid_1174">
					<dim>1</dim>
					<dim>116</dim>
					<dim>26</dim>
					<dim>40</dim>
				</port>
			</output>
		</layer>
		<layer id="259" name="Mul_122" type="Swish" version="opset4">
			<input>
				<port id="0" precision="FP32">
					<dim>1</dim>
					<dim>116</dim>
					<dim>26</dim>
					<dim>40</dim>
				</port>
			</input>
			<output>
				<port id="1" precision="FP32" names="onnx::Concat_457">
					<dim>1</dim>
					<dim>116</dim>
					<dim>26</dim>
					<dim>40</dim>
				</port>
			</output>
		</layer>
		<layer id="260" name="Concat_123" type="Concat" version="opset1">
			<data axis="1" />
			<input>
				<port id="0" precision="FP32">
					<dim>1</dim>
					<dim>116</dim>
					<dim>26</dim>
					<dim>40</dim>
				</port>
				<port id="1" precision="FP32">
					<dim>1</dim>
					<dim>116</dim>
					<dim>26</dim>
					<dim>40</dim>
				</port>
			</input>
			<output>
				<port id="2" precision="FP32" names="out.15">
					<dim>1</dim>
					<dim>232</dim>
					<dim>26</dim>
					<dim>40</dim>
				</port>
			</output>
		</layer>
		<layer id="261" name="Constant_124" type="Const" version="opset1">
			<data element_type="i64" shape="5" offset="153228" size="40" />
			<output>
				<port id="0" precision="I64" names="onnx::Reshape_459">
					<dim>5</dim>
				</port>
			</output>
		</layer>
		<layer id="262" name="Reshape_125" type="Reshape" version="opset1">
			<data special_zero="true" />
			<input>
				<port id="0" precision="FP32">
					<dim>1</dim>
					<dim>232</dim>
					<dim>26</dim>
					<dim>40</dim>
				</port>
				<port id="1" precision="I64">
					<dim>5</dim>
				</port>
			</input>
			<output>
				<port id="2" precision="FP32" names="onnx::Transpose_460">
					<dim>1</dim>
					<dim>2</dim>
					<dim>116</dim>
					<dim>26</dim>
					<dim>40</dim>
				</port>
			</output>
		</layer>
		<layer id="263" name="Constant_2324" type="Const" version="opset1">
			<data element_type="i64" shape="5" offset="33408" size="40" />
			<output>
				<port id="0" precision="I64">
					<dim>5</dim>
				</port>
			</output>
		</layer>
		<layer id="264" name="Transpose_126" type="Transpose" version="opset1">
			<input>
				<port id="0" precision="FP32">
					<dim>1</dim>
					<dim>2</dim>
					<dim>116</dim>
					<dim>26</dim>
					<dim>40</dim>
				</port>
				<port id="1" precision="I64">
					<dim>5</dim>
				</port>
			</input>
			<output>
				<port id="2" precision="FP32" names="onnx::Reshape_461">
					<dim>1</dim>
					<dim>116</dim>
					<dim>2</dim>
					<dim>26</dim>
					<dim>40</dim>
				</port>
			</output>
		</layer>
		<layer id="265" name="Constant_127" type="Const" version="opset1">
			<data element_type="i64" shape="4" offset="153268" size="32" />
			<output>
				<port id="0" precision="I64" names="onnx::Reshape_462">
					<dim>4</dim>
				</port>
			</output>
		</layer>
		<layer id="266" name="Reshape_128" type="Reshape" version="opset1">
			<data special_zero="true" />
			<input>
				<port id="0" precision="FP32">
					<dim>1</dim>
					<dim>116</dim>
					<dim>2</dim>
					<dim>26</dim>
					<dim>40</dim>
				</port>
				<port id="1" precision="I64">
					<dim>4</dim>
				</port>
			</input>
			<output>
				<port id="2" precision="FP32" names="onnx::Shape_463">
					<dim>1</dim>
					<dim>232</dim>
					<dim>26</dim>
					<dim>40</dim>
				</port>
			</output>
		</layer>
		<layer id="267" name="Constant_20237" type="Const" version="opset1">
			<data element_type="i64" shape="2" offset="33480" size="16" />
			<output>
				<port id="0" precision="I64">
					<dim>2</dim>
				</port>
			</output>
		</layer>
		<layer id="268" name="Constant_20238" type="Const" version="opset1">
			<data element_type="i64" shape="2" offset="33480" size="16" />
			<output>
				<port id="0" precision="I64">
					<dim>2</dim>
				</port>
			</output>
		</layer>
		<layer id="269" name="Constant_20234" type="Const" version="opset1">
			<data element_type="i64" shape="1" offset="33496" size="8" />
			<output>
				<port id="0" precision="I64">
					<dim>1</dim>
				</port>
			</output>
		</layer>
		<layer id="270" name="Shape_129" type="ShapeOf" version="opset3">
			<data output_type="i64" />
			<input>
				<port id="0" precision="FP32">
					<dim>1</dim>
					<dim>232</dim>
					<dim>26</dim>
					<dim>40</dim>
				</port>
			</input>
			<output>
				<port id="1" precision="I64" names="onnx::Gather_464">
					<dim>4</dim>
				</port>
			</output>
		</layer>
		<layer id="271" name="Constant_130" type="Const" version="opset1">
			<data element_type="i64" shape="1" offset="33496" size="8" />
			<output>
				<port id="0" precision="I64" names="onnx::Gather_465">
					<dim>1</dim>
				</port>
			</output>
		</layer>
		<layer id="272" name="Constant_2335" type="Const" version="opset1">
			<data element_type="i64" shape="" offset="33504" size="8" />
			<output>
				<port id="0" precision="I64" />
			</output>
		</layer>
		<layer id="273" name="Gather_131" type="Gather" version="opset8">
			<data batch_dims="0" />
			<input>
				<port id="0" precision="I64">
					<dim>4</dim>
				</port>
				<port id="1" precision="I64">
					<dim>1</dim>
				</port>
				<port id="2" precision="I64" />
			</input>
			<output>
				<port id="3" precision="I64" names="onnx::Add_466">
					<dim>1</dim>
				</port>
			</output>
		</layer>
		<layer id="274" name="Constant_133" type="Const" version="opset1">
			<data element_type="i64" shape="1" offset="33496" size="8" />
			<output>
				<port id="0" precision="I64" names="onnx::Add_468">
					<dim>1</dim>
				</port>
			</output>
		</layer>
		<layer id="275" name="Add_134" type="Add" version="opset1">
			<data auto_broadcast="numpy" />
			<input>
				<port id="0" precision="I64">
					<dim>1</dim>
				</port>
				<port id="1" precision="I64">
					<dim>1</dim>
				</port>
			</input>
			<output>
				<port id="2" precision="I64" names="onnx::Div_469">
					<dim>1</dim>
				</port>
			</output>
		</layer>
		<layer id="276" name="Constant_135" type="Const" version="opset1">
			<data element_type="i64" shape="1" offset="33512" size="8" />
			<output>
				<port id="0" precision="I64" names="onnx::Div_470">
					<dim>1</dim>
				</port>
			</output>
		</layer>
		<layer id="277" name="Div_136" type="Divide" version="opset1">
			<data auto_broadcast="numpy" m_pythondiv="true" />
			<input>
				<port id="0" precision="I64">
					<dim>1</dim>
				</port>
				<port id="1" precision="I64">
					<dim>1</dim>
				</port>
			</input>
			<output>
				<port id="2" precision="I64" names="onnx::Mul_471,onnx::Slice_473">
					<dim>1</dim>
				</port>
			</output>
		</layer>
		<layer id="278" name="Constant_20233" type="Const" version="opset1">
			<data element_type="i32" shape="1" offset="33520" size="4" />
			<output>
				<port id="0" precision="I32">
					<dim>1</dim>
				</port>
			</output>
		</layer>
		<layer id="279" name="ScatterUpdate_20239" type="ScatterUpdate" version="opset3">
			<input>
				<port id="0" precision="I64">
					<dim>2</dim>
				</port>
				<port id="1" precision="I64">
					<dim>1</dim>
				</port>
				<port id="2" precision="I64">
					<dim>1</dim>
				</port>
				<port id="3" precision="I32">
					<dim>1</dim>
				</port>
			</input>
			<output>
				<port id="4" precision="I64">
					<dim>2</dim>
				</port>
			</output>
		</layer>
		<layer id="280" name="Constant_20242" type="Const" version="opset1">
			<data element_type="i64" shape="2" offset="33524" size="16" />
			<output>
				<port id="0" precision="I64">
					<dim>2</dim>
				</port>
			</output>
		</layer>
		<layer id="281" name="Slice_139" type="StridedSlice" version="opset1">
			<data begin_mask="1, 0" end_mask="1, 0" new_axis_mask="" shrink_axis_mask="" ellipsis_mask="" />
			<input>
				<port id="0" precision="FP32">
					<dim>1</dim>
					<dim>232</dim>
					<dim>26</dim>
					<dim>40</dim>
				</port>
				<port id="1" precision="I64">
					<dim>2</dim>
				</port>
				<port id="2" precision="I64">
					<dim>2</dim>
				</port>
				<port id="3" precision="I64">
					<dim>2</dim>
				</port>
			</input>
			<output>
				<port id="4" precision="FP32" names="onnx::Concat_474">
					<dim>1</dim>
					<dim>116</dim>
					<dim>26</dim>
					<dim>40</dim>
				</port>
			</output>
		</layer>
		<layer id="282" name="Constant_20306" type="Const" version="opset1">
			<data element_type="i64" shape="2" offset="33480" size="16" />
			<output>
				<port id="0" precision="I64">
					<dim>2</dim>
				</port>
			</output>
		</layer>
		<layer id="283" name="Constant_20305" type="Const" version="opset1">
			<data element_type="i64" shape="1" offset="33496" size="8" />
			<output>
				<port id="0" precision="I64">
					<dim>1</dim>
				</port>
			</output>
		</layer>
		<layer id="284" name="Constant_20304" type="Const" version="opset1">
			<data element_type="i32" shape="1" offset="33520" size="4" />
			<output>
				<port id="0" precision="I32">
					<dim>1</dim>
				</port>
			</output>
		</layer>
		<layer id="285" name="ScatterUpdate_20307" type="ScatterUpdate" version="opset3">
			<input>
				<port id="0" precision="I64">
					<dim>2</dim>
				</port>
				<port id="1" precision="I64">
					<dim>1</dim>
				</port>
				<port id="2" precision="I64">
					<dim>1</dim>
				</port>
				<port id="3" precision="I32">
					<dim>1</dim>
				</port>
			</input>
			<output>
				<port id="4" precision="I64">
					<dim>2</dim>
				</port>
			</output>
		</layer>
		<layer id="286" name="Constant_20308" type="Const" version="opset1">
			<data element_type="i64" shape="2" offset="33480" size="16" />
			<output>
				<port id="0" precision="I64">
					<dim>2</dim>
				</port>
			</output>
		</layer>
		<layer id="287" name="Constant_140" type="Const" version="opset1">
			<data element_type="i64" shape="1" offset="33512" size="8" />
			<output>
				<port id="0" precision="I64" names="onnx::Mul_475">
					<dim>1</dim>
				</port>
			</output>
		</layer>
		<layer id="288" name="Mul_141" type="Multiply" version="opset1">
			<data auto_broadcast="numpy" />
			<input>
				<port id="0" precision="I64">
					<dim>1</dim>
				</port>
				<port id="1" precision="I64">
					<dim>1</dim>
				</port>
			</input>
			<output>
				<port id="2" precision="I64" names="onnx::Slice_476">
					<dim>1</dim>
				</port>
			</output>
		</layer>
		<layer id="289" name="ScatterUpdate_20309" type="ScatterUpdate" version="opset3">
			<input>
				<port id="0" precision="I64">
					<dim>2</dim>
				</port>
				<port id="1" precision="I64">
					<dim>1</dim>
				</port>
				<port id="2" precision="I64">
					<dim>1</dim>
				</port>
				<port id="3" precision="I32">
					<dim>1</dim>
				</port>
			</input>
			<output>
				<port id="4" precision="I64">
					<dim>2</dim>
				</port>
			</output>
		</layer>
		<layer id="290" name="Constant_20312" type="Const" version="opset1">
			<data element_type="i64" shape="2" offset="33524" size="16" />
			<output>
				<port id="0" precision="I64">
					<dim>2</dim>
				</port>
			</output>
		</layer>
		<layer id="291" name="Slice_142" type="StridedSlice" version="opset1">
			<data begin_mask="1, 0" end_mask="1, 0" new_axis_mask="" shrink_axis_mask="" ellipsis_mask="" />
			<input>
				<port id="0" precision="FP32">
					<dim>1</dim>
					<dim>232</dim>
					<dim>26</dim>
					<dim>40</dim>
				</port>
				<port id="1" precision="I64">
					<dim>2</dim>
				</port>
				<port id="2" precision="I64">
					<dim>2</dim>
				</port>
				<port id="3" precision="I64">
					<dim>2</dim>
				</port>
			</input>
			<output>
				<port id="4" precision="FP32" names="onnx::Conv_477">
					<dim>1</dim>
					<dim>116</dim>
					<dim>26</dim>
					<dim>40</dim>
				</port>
			</output>
		</layer>
		<layer id="292" name="onnx::Conv_1178_compressed" type="Const" version="opset1">
			<data element_type="f16" shape="116, 116, 1, 1" offset="209908" size="26912" />
			<output>
				<port id="0" precision="FP16">
					<dim>116</dim>
					<dim>116</dim>
					<dim>1</dim>
					<dim>1</dim>
				</port>
			</output>
		</layer>
		<layer id="293" name="onnx::Conv_1178" type="Convert" version="opset1">
			<data destination_type="f32" />
			<rt_info>
				<attribute name="decompression" version="0" />
			</rt_info>
			<input>
				<port id="0" precision="FP16">
					<dim>116</dim>
					<dim>116</dim>
					<dim>1</dim>
					<dim>1</dim>
				</port>
			</input>
			<output>
				<port id="1" precision="FP32" names="onnx::Conv_1178">
					<dim>116</dim>
					<dim>116</dim>
					<dim>1</dim>
					<dim>1</dim>
				</port>
			</output>
		</layer>
		<layer id="294" name="Conv_143/WithoutBiases" type="Convolution" version="opset1">
			<data strides="1, 1" dilations="1, 1" pads_begin="0, 0" pads_end="0, 0" auto_pad="explicit" />
			<input>
				<port id="0" precision="FP32">
					<dim>1</dim>
					<dim>116</dim>
					<dim>26</dim>
					<dim>40</dim>
				</port>
				<port id="1" precision="FP32">
					<dim>116</dim>
					<dim>116</dim>
					<dim>1</dim>
					<dim>1</dim>
				</port>
			</input>
			<output>
				<port id="2" precision="FP32">
					<dim>1</dim>
					<dim>116</dim>
					<dim>26</dim>
					<dim>40</dim>
				</port>
			</output>
		</layer>
		<layer id="295" name="Reshape_2501_compressed" type="Const" version="opset1">
			<data element_type="f16" shape="1, 116, 1, 1" offset="236820" size="232" />
			<output>
				<port id="0" precision="FP16">
					<dim>1</dim>
					<dim>116</dim>
					<dim>1</dim>
					<dim>1</dim>
				</port>
			</output>
		</layer>
		<layer id="296" name="Reshape_2501" type="Convert" version="opset1">
			<data destination_type="f32" />
			<rt_info>
				<attribute name="decompression" version="0" />
			</rt_info>
			<input>
				<port id="0" precision="FP16">
					<dim>1</dim>
					<dim>116</dim>
					<dim>1</dim>
					<dim>1</dim>
				</port>
			</input>
			<output>
				<port id="1" precision="FP32">
					<dim>1</dim>
					<dim>116</dim>
					<dim>1</dim>
					<dim>1</dim>
				</port>
			</output>
		</layer>
		<layer id="297" name="Conv_143" type="Add" version="opset1">
			<data auto_broadcast="numpy" />
			<input>
				<port id="0" precision="FP32">
					<dim>1</dim>
					<dim>116</dim>
					<dim>26</dim>
					<dim>40</dim>
				</port>
				<port id="1" precision="FP32">
					<dim>1</dim>
					<dim>116</dim>
					<dim>1</dim>
					<dim>1</dim>
				</port>
			</input>
			<output>
				<port id="2" precision="FP32" names="onnx::Sigmoid_1177">
					<dim>1</dim>
					<dim>116</dim>
					<dim>26</dim>
					<dim>40</dim>
				</port>
			</output>
		</layer>
		<layer id="298" name="Mul_145" type="Swish" version="opset4">
			<input>
				<port id="0" precision="FP32">
					<dim>1</dim>
					<dim>116</dim>
					<dim>26</dim>
					<dim>40</dim>
				</port>
			</input>
			<output>
				<port id="1" precision="FP32" names="input.148">
					<dim>1</dim>
					<dim>116</dim>
					<dim>26</dim>
					<dim>40</dim>
				</port>
			</output>
		</layer>
		<layer id="299" name="Reshape_2538_compressed" type="Const" version="opset1">
			<data element_type="f16" shape="116, 1, 1, 3, 3" offset="237052" size="2088" />
			<output>
				<port id="0" precision="FP16">
					<dim>116</dim>
					<dim>1</dim>
					<dim>1</dim>
					<dim>3</dim>
					<dim>3</dim>
				</port>
			</output>
		</layer>
		<layer id="300" name="Reshape_2538" type="Convert" version="opset1">
			<data destination_type="f32" />
			<rt_info>
				<attribute name="decompression" version="0" />
			</rt_info>
			<input>
				<port id="0" precision="FP16">
					<dim>116</dim>
					<dim>1</dim>
					<dim>1</dim>
					<dim>3</dim>
					<dim>3</dim>
				</port>
			</input>
			<output>
				<port id="1" precision="FP32">
					<dim>116</dim>
					<dim>1</dim>
					<dim>1</dim>
					<dim>3</dim>
					<dim>3</dim>
				</port>
			</output>
		</layer>
		<layer id="301" name="Conv_146/WithoutBiases" type="GroupConvolution" version="opset1">
			<data strides="1, 1" pads_begin="1, 1" pads_end="1, 1" dilations="1, 1" auto_pad="explicit" />
			<input>
				<port id="0" precision="FP32">
					<dim>1</dim>
					<dim>116</dim>
					<dim>26</dim>
					<dim>40</dim>
				</port>
				<port id="1" precision="FP32">
					<dim>116</dim>
					<dim>1</dim>
					<dim>1</dim>
					<dim>3</dim>
					<dim>3</dim>
				</port>
			</input>
			<output>
				<port id="2" precision="FP32">
					<dim>1</dim>
					<dim>116</dim>
					<dim>26</dim>
					<dim>40</dim>
				</port>
			</output>
		</layer>
		<layer id="302" name="Reshape_2624_compressed" type="Const" version="opset1">
			<data element_type="f16" shape="1, 116, 1, 1" offset="239140" size="232" />
			<output>
				<port id="0" precision="FP16">
					<dim>1</dim>
					<dim>116</dim>
					<dim>1</dim>
					<dim>1</dim>
				</port>
			</output>
		</layer>
		<layer id="303" name="Reshape_2624" type="Convert" version="opset1">
			<data destination_type="f32" />
			<rt_info>
				<attribute name="decompression" version="0" />
			</rt_info>
			<input>
				<port id="0" precision="FP16">
					<dim>1</dim>
					<dim>116</dim>
					<dim>1</dim>
					<dim>1</dim>
				</port>
			</input>
			<output>
				<port id="1" precision="FP32">
					<dim>1</dim>
					<dim>116</dim>
					<dim>1</dim>
					<dim>1</dim>
				</port>
			</output>
		</layer>
		<layer id="304" name="Conv_146" type="Add" version="opset1">
			<data auto_broadcast="numpy" />
			<input>
				<port id="0" precision="FP32">
					<dim>1</dim>
					<dim>116</dim>
					<dim>26</dim>
					<dim>40</dim>
				</port>
				<port id="1" precision="FP32">
					<dim>1</dim>
					<dim>116</dim>
					<dim>1</dim>
					<dim>1</dim>
				</port>
			</input>
			<output>
				<port id="2" precision="FP32" names="input.156">
					<dim>1</dim>
					<dim>116</dim>
					<dim>26</dim>
					<dim>40</dim>
				</port>
			</output>
		</layer>
		<layer id="305" name="onnx::Conv_1184_compressed" type="Const" version="opset1">
			<data element_type="f16" shape="116, 116, 1, 1" offset="239372" size="26912" />
			<output>
				<port id="0" precision="FP16">
					<dim>116</dim>
					<dim>116</dim>
					<dim>1</dim>
					<dim>1</dim>
				</port>
			</output>
		</layer>
		<layer id="306" name="onnx::Conv_1184" type="Convert" version="opset1">
			<data destination_type="f32" />
			<rt_info>
				<attribute name="decompression" version="0" />
			</rt_info>
			<input>
				<port id="0" precision="FP16">
					<dim>116</dim>
					<dim>116</dim>
					<dim>1</dim>
					<dim>1</dim>
				</port>
			</input>
			<output>
				<port id="1" precision="FP32" names="onnx::Conv_1184">
					<dim>116</dim>
					<dim>116</dim>
					<dim>1</dim>
					<dim>1</dim>
				</port>
			</output>
		</layer>
		<layer id="307" name="Conv_147/WithoutBiases" type="Convolution" version="opset1">
			<data strides="1, 1" dilations="1, 1" pads_begin="0, 0" pads_end="0, 0" auto_pad="explicit" />
			<input>
				<port id="0" precision="FP32">
					<dim>1</dim>
					<dim>116</dim>
					<dim>26</dim>
					<dim>40</dim>
				</port>
				<port id="1" precision="FP32">
					<dim>116</dim>
					<dim>116</dim>
					<dim>1</dim>
					<dim>1</dim>
				</port>
			</input>
			<output>
				<port id="2" precision="FP32">
					<dim>1</dim>
					<dim>116</dim>
					<dim>26</dim>
					<dim>40</dim>
				</port>
			</output>
		</layer>
		<layer id="308" name="Reshape_2672_compressed" type="Const" version="opset1">
			<data element_type="f16" shape="1, 116, 1, 1" offset="266284" size="232" />
			<output>
				<port id="0" precision="FP16">
					<dim>1</dim>
					<dim>116</dim>
					<dim>1</dim>
					<dim>1</dim>
				</port>
			</output>
		</layer>
		<layer id="309" name="Reshape_2672" type="Convert" version="opset1">
			<data destination_type="f32" />
			<rt_info>
				<attribute name="decompression" version="0" />
			</rt_info>
			<input>
				<port id="0" precision="FP16">
					<dim>1</dim>
					<dim>116</dim>
					<dim>1</dim>
					<dim>1</dim>
				</port>
			</input>
			<output>
				<port id="1" precision="FP32">
					<dim>1</dim>
					<dim>116</dim>
					<dim>1</dim>
					<dim>1</dim>
				</port>
			</output>
		</layer>
		<layer id="310" name="Conv_147" type="Add" version="opset1">
			<data auto_broadcast="numpy" />
			<input>
				<port id="0" precision="FP32">
					<dim>1</dim>
					<dim>116</dim>
					<dim>26</dim>
					<dim>40</dim>
				</port>
				<port id="1" precision="FP32">
					<dim>1</dim>
					<dim>116</dim>
					<dim>1</dim>
					<dim>1</dim>
				</port>
			</input>
			<output>
				<port id="2" precision="FP32" names="onnx::Sigmoid_1183">
					<dim>1</dim>
					<dim>116</dim>
					<dim>26</dim>
					<dim>40</dim>
				</port>
			</output>
		</layer>
		<layer id="311" name="Mul_149" type="Swish" version="opset4">
			<input>
				<port id="0" precision="FP32">
					<dim>1</dim>
					<dim>116</dim>
					<dim>26</dim>
					<dim>40</dim>
				</port>
			</input>
			<output>
				<port id="1" precision="FP32" names="onnx::Concat_487">
					<dim>1</dim>
					<dim>116</dim>
					<dim>26</dim>
					<dim>40</dim>
				</port>
			</output>
		</layer>
		<layer id="312" name="Concat_150" type="Concat" version="opset1">
			<data axis="1" />
			<input>
				<port id="0" precision="FP32">
					<dim>1</dim>
					<dim>116</dim>
					<dim>26</dim>
					<dim>40</dim>
				</port>
				<port id="1" precision="FP32">
					<dim>1</dim>
					<dim>116</dim>
					<dim>26</dim>
					<dim>40</dim>
				</port>
			</input>
			<output>
				<port id="2" precision="FP32" names="out.19">
					<dim>1</dim>
					<dim>232</dim>
					<dim>26</dim>
					<dim>40</dim>
				</port>
			</output>
		</layer>
		<layer id="313" name="Constant_151" type="Const" version="opset1">
			<data element_type="i64" shape="5" offset="153228" size="40" />
			<output>
				<port id="0" precision="I64" names="onnx::Reshape_489">
					<dim>5</dim>
				</port>
			</output>
		</layer>
		<layer id="314" name="Reshape_152" type="Reshape" version="opset1">
			<data special_zero="true" />
			<input>
				<port id="0" precision="FP32">
					<dim>1</dim>
					<dim>232</dim>
					<dim>26</dim>
					<dim>40</dim>
				</port>
				<port id="1" precision="I64">
					<dim>5</dim>
				</port>
			</input>
			<output>
				<port id="2" precision="FP32" names="onnx::Transpose_490">
					<dim>1</dim>
					<dim>2</dim>
					<dim>116</dim>
					<dim>26</dim>
					<dim>40</dim>
				</port>
			</output>
		</layer>
		<layer id="315" name="Constant_2710" type="Const" version="opset1">
			<data element_type="i64" shape="5" offset="33408" size="40" />
			<output>
				<port id="0" precision="I64">
					<dim>5</dim>
				</port>
			</output>
		</layer>
		<layer id="316" name="Transpose_153" type="Transpose" version="opset1">
			<input>
				<port id="0" precision="FP32">
					<dim>1</dim>
					<dim>2</dim>
					<dim>116</dim>
					<dim>26</dim>
					<dim>40</dim>
				</port>
				<port id="1" precision="I64">
					<dim>5</dim>
				</port>
			</input>
			<output>
				<port id="2" precision="FP32" names="onnx::Reshape_491">
					<dim>1</dim>
					<dim>116</dim>
					<dim>2</dim>
					<dim>26</dim>
					<dim>40</dim>
				</port>
			</output>
		</layer>
		<layer id="317" name="Constant_154" type="Const" version="opset1">
			<data element_type="i64" shape="4" offset="153268" size="32" />
			<output>
				<port id="0" precision="I64" names="onnx::Reshape_492">
					<dim>4</dim>
				</port>
			</output>
		</layer>
		<layer id="318" name="Reshape_155" type="Reshape" version="opset1">
			<data special_zero="true" />
			<input>
				<port id="0" precision="FP32">
					<dim>1</dim>
					<dim>116</dim>
					<dim>2</dim>
					<dim>26</dim>
					<dim>40</dim>
				</port>
				<port id="1" precision="I64">
					<dim>4</dim>
				</port>
			</input>
			<output>
				<port id="2" precision="FP32" names="onnx::Shape_493">
					<dim>1</dim>
					<dim>232</dim>
					<dim>26</dim>
					<dim>40</dim>
				</port>
			</output>
		</layer>
		<layer id="319" name="Constant_20438" type="Const" version="opset1">
			<data element_type="i64" shape="2" offset="33480" size="16" />
			<output>
				<port id="0" precision="I64">
					<dim>2</dim>
				</port>
			</output>
		</layer>
		<layer id="320" name="Constant_20439" type="Const" version="opset1">
			<data element_type="i64" shape="2" offset="33480" size="16" />
			<output>
				<port id="0" precision="I64">
					<dim>2</dim>
				</port>
			</output>
		</layer>
		<layer id="321" name="Constant_20435" type="Const" version="opset1">
			<data element_type="i64" shape="1" offset="33496" size="8" />
			<output>
				<port id="0" precision="I64">
					<dim>1</dim>
				</port>
			</output>
		</layer>
		<layer id="322" name="Shape_156" type="ShapeOf" version="opset3">
			<data output_type="i64" />
			<input>
				<port id="0" precision="FP32">
					<dim>1</dim>
					<dim>232</dim>
					<dim>26</dim>
					<dim>40</dim>
				</port>
			</input>
			<output>
				<port id="1" precision="I64" names="onnx::Gather_494">
					<dim>4</dim>
				</port>
			</output>
		</layer>
		<layer id="323" name="Constant_157" type="Const" version="opset1">
			<data element_type="i64" shape="1" offset="33496" size="8" />
			<output>
				<port id="0" precision="I64" names="onnx::Gather_495">
					<dim>1</dim>
				</port>
			</output>
		</layer>
		<layer id="324" name="Constant_2721" type="Const" version="opset1">
			<data element_type="i64" shape="" offset="33504" size="8" />
			<output>
				<port id="0" precision="I64" />
			</output>
		</layer>
		<layer id="325" name="Gather_158" type="Gather" version="opset8">
			<data batch_dims="0" />
			<input>
				<port id="0" precision="I64">
					<dim>4</dim>
				</port>
				<port id="1" precision="I64">
					<dim>1</dim>
				</port>
				<port id="2" precision="I64" />
			</input>
			<output>
				<port id="3" precision="I64" names="onnx::Add_496">
					<dim>1</dim>
				</port>
			</output>
		</layer>
		<layer id="326" name="Constant_160" type="Const" version="opset1">
			<data element_type="i64" shape="1" offset="33496" size="8" />
			<output>
				<port id="0" precision="I64" names="onnx::Add_498">
					<dim>1</dim>
				</port>
			</output>
		</layer>
		<layer id="327" name="Add_161" type="Add" version="opset1">
			<data auto_broadcast="numpy" />
			<input>
				<port id="0" precision="I64">
					<dim>1</dim>
				</port>
				<port id="1" precision="I64">
					<dim>1</dim>
				</port>
			</input>
			<output>
				<port id="2" precision="I64" names="onnx::Div_499">
					<dim>1</dim>
				</port>
			</output>
		</layer>
		<layer id="328" name="Constant_162" type="Const" version="opset1">
			<data element_type="i64" shape="1" offset="33512" size="8" />
			<output>
				<port id="0" precision="I64" names="onnx::Div_500">
					<dim>1</dim>
				</port>
			</output>
		</layer>
		<layer id="329" name="Div_163" type="Divide" version="opset1">
			<data auto_broadcast="numpy" m_pythondiv="true" />
			<input>
				<port id="0" precision="I64">
					<dim>1</dim>
				</port>
				<port id="1" precision="I64">
					<dim>1</dim>
				</port>
			</input>
			<output>
				<port id="2" precision="I64" names="onnx::Mul_501,onnx::Slice_503">
					<dim>1</dim>
				</port>
			</output>
		</layer>
		<layer id="330" name="Constant_20434" type="Const" version="opset1">
			<data element_type="i32" shape="1" offset="33520" size="4" />
			<output>
				<port id="0" precision="I32">
					<dim>1</dim>
				</port>
			</output>
		</layer>
		<layer id="331" name="ScatterUpdate_20440" type="ScatterUpdate" version="opset3">
			<input>
				<port id="0" precision="I64">
					<dim>2</dim>
				</port>
				<port id="1" precision="I64">
					<dim>1</dim>
				</port>
				<port id="2" precision="I64">
					<dim>1</dim>
				</port>
				<port id="3" precision="I32">
					<dim>1</dim>
				</port>
			</input>
			<output>
				<port id="4" precision="I64">
					<dim>2</dim>
				</port>
			</output>
		</layer>
		<layer id="332" name="Constant_20443" type="Const" version="opset1">
			<data element_type="i64" shape="2" offset="33524" size="16" />
			<output>
				<port id="0" precision="I64">
					<dim>2</dim>
				</port>
			</output>
		</layer>
		<layer id="333" name="Slice_166" type="StridedSlice" version="opset1">
			<data begin_mask="1, 0" end_mask="1, 0" new_axis_mask="" shrink_axis_mask="" ellipsis_mask="" />
			<input>
				<port id="0" precision="FP32">
					<dim>1</dim>
					<dim>232</dim>
					<dim>26</dim>
					<dim>40</dim>
				</port>
				<port id="1" precision="I64">
					<dim>2</dim>
				</port>
				<port id="2" precision="I64">
					<dim>2</dim>
				</port>
				<port id="3" precision="I64">
					<dim>2</dim>
				</port>
			</input>
			<output>
				<port id="4" precision="FP32" names="onnx::Concat_504">
					<dim>1</dim>
					<dim>116</dim>
					<dim>26</dim>
					<dim>40</dim>
				</port>
			</output>
		</layer>
		<layer id="334" name="Constant_20507" type="Const" version="opset1">
			<data element_type="i64" shape="2" offset="33480" size="16" />
			<output>
				<port id="0" precision="I64">
					<dim>2</dim>
				</port>
			</output>
		</layer>
		<layer id="335" name="Constant_20506" type="Const" version="opset1">
			<data element_type="i64" shape="1" offset="33496" size="8" />
			<output>
				<port id="0" precision="I64">
					<dim>1</dim>
				</port>
			</output>
		</layer>
		<layer id="336" name="Constant_20505" type="Const" version="opset1">
			<data element_type="i32" shape="1" offset="33520" size="4" />
			<output>
				<port id="0" precision="I32">
					<dim>1</dim>
				</port>
			</output>
		</layer>
		<layer id="337" name="ScatterUpdate_20508" type="ScatterUpdate" version="opset3">
			<input>
				<port id="0" precision="I64">
					<dim>2</dim>
				</port>
				<port id="1" precision="I64">
					<dim>1</dim>
				</port>
				<port id="2" precision="I64">
					<dim>1</dim>
				</port>
				<port id="3" precision="I32">
					<dim>1</dim>
				</port>
			</input>
			<output>
				<port id="4" precision="I64">
					<dim>2</dim>
				</port>
			</output>
		</layer>
		<layer id="338" name="Constant_20509" type="Const" version="opset1">
			<data element_type="i64" shape="2" offset="33480" size="16" />
			<output>
				<port id="0" precision="I64">
					<dim>2</dim>
				</port>
			</output>
		</layer>
		<layer id="339" name="Constant_167" type="Const" version="opset1">
			<data element_type="i64" shape="1" offset="33512" size="8" />
			<output>
				<port id="0" precision="I64" names="onnx::Mul_505">
					<dim>1</dim>
				</port>
			</output>
		</layer>
		<layer id="340" name="Mul_168" type="Multiply" version="opset1">
			<data auto_broadcast="numpy" />
			<input>
				<port id="0" precision="I64">
					<dim>1</dim>
				</port>
				<port id="1" precision="I64">
					<dim>1</dim>
				</port>
			</input>
			<output>
				<port id="2" precision="I64" names="onnx::Slice_506">
					<dim>1</dim>
				</port>
			</output>
		</layer>
		<layer id="341" name="ScatterUpdate_20510" type="ScatterUpdate" version="opset3">
			<input>
				<port id="0" precision="I64">
					<dim>2</dim>
				</port>
				<port id="1" precision="I64">
					<dim>1</dim>
				</port>
				<port id="2" precision="I64">
					<dim>1</dim>
				</port>
				<port id="3" precision="I32">
					<dim>1</dim>
				</port>
			</input>
			<output>
				<port id="4" precision="I64">
					<dim>2</dim>
				</port>
			</output>
		</layer>
		<layer id="342" name="Constant_20513" type="Const" version="opset1">
			<data element_type="i64" shape="2" offset="33524" size="16" />
			<output>
				<port id="0" precision="I64">
					<dim>2</dim>
				</port>
			</output>
		</layer>
		<layer id="343" name="Slice_169" type="StridedSlice" version="opset1">
			<data begin_mask="1, 0" end_mask="1, 0" new_axis_mask="" shrink_axis_mask="" ellipsis_mask="" />
			<input>
				<port id="0" precision="FP32">
					<dim>1</dim>
					<dim>232</dim>
					<dim>26</dim>
					<dim>40</dim>
				</port>
				<port id="1" precision="I64">
					<dim>2</dim>
				</port>
				<port id="2" precision="I64">
					<dim>2</dim>
				</port>
				<port id="3" precision="I64">
					<dim>2</dim>
				</port>
			</input>
			<output>
				<port id="4" precision="FP32" names="onnx::Conv_507">
					<dim>1</dim>
					<dim>116</dim>
					<dim>26</dim>
					<dim>40</dim>
				</port>
			</output>
		</layer>
		<layer id="344" name="onnx::Conv_1187_compressed" type="Const" version="opset1">
			<data element_type="f16" shape="116, 116, 1, 1" offset="266516" size="26912" />
			<output>
				<port id="0" precision="FP16">
					<dim>116</dim>
					<dim>116</dim>
					<dim>1</dim>
					<dim>1</dim>
				</port>
			</output>
		</layer>
		<layer id="345" name="onnx::Conv_1187" type="Convert" version="opset1">
			<data destination_type="f32" />
			<rt_info>
				<attribute name="decompression" version="0" />
			</rt_info>
			<input>
				<port id="0" precision="FP16">
					<dim>116</dim>
					<dim>116</dim>
					<dim>1</dim>
					<dim>1</dim>
				</port>
			</input>
			<output>
				<port id="1" precision="FP32" names="onnx::Conv_1187">
					<dim>116</dim>
					<dim>116</dim>
					<dim>1</dim>
					<dim>1</dim>
				</port>
			</output>
		</layer>
		<layer id="346" name="Conv_170/WithoutBiases" type="Convolution" version="opset1">
			<data strides="1, 1" dilations="1, 1" pads_begin="0, 0" pads_end="0, 0" auto_pad="explicit" />
			<input>
				<port id="0" precision="FP32">
					<dim>1</dim>
					<dim>116</dim>
					<dim>26</dim>
					<dim>40</dim>
				</port>
				<port id="1" precision="FP32">
					<dim>116</dim>
					<dim>116</dim>
					<dim>1</dim>
					<dim>1</dim>
				</port>
			</input>
			<output>
				<port id="2" precision="FP32">
					<dim>1</dim>
					<dim>116</dim>
					<dim>26</dim>
					<dim>40</dim>
				</port>
			</output>
		</layer>
		<layer id="347" name="Reshape_2887_compressed" type="Const" version="opset1">
			<data element_type="f16" shape="1, 116, 1, 1" offset="293428" size="232" />
			<output>
				<port id="0" precision="FP16">
					<dim>1</dim>
					<dim>116</dim>
					<dim>1</dim>
					<dim>1</dim>
				</port>
			</output>
		</layer>
		<layer id="348" name="Reshape_2887" type="Convert" version="opset1">
			<data destination_type="f32" />
			<rt_info>
				<attribute name="decompression" version="0" />
			</rt_info>
			<input>
				<port id="0" precision="FP16">
					<dim>1</dim>
					<dim>116</dim>
					<dim>1</dim>
					<dim>1</dim>
				</port>
			</input>
			<output>
				<port id="1" precision="FP32">
					<dim>1</dim>
					<dim>116</dim>
					<dim>1</dim>
					<dim>1</dim>
				</port>
			</output>
		</layer>
		<layer id="349" name="Conv_170" type="Add" version="opset1">
			<data auto_broadcast="numpy" />
			<input>
				<port id="0" precision="FP32">
					<dim>1</dim>
					<dim>116</dim>
					<dim>26</dim>
					<dim>40</dim>
				</port>
				<port id="1" precision="FP32">
					<dim>1</dim>
					<dim>116</dim>
					<dim>1</dim>
					<dim>1</dim>
				</port>
			</input>
			<output>
				<port id="2" precision="FP32" names="onnx::Sigmoid_1186">
					<dim>1</dim>
					<dim>116</dim>
					<dim>26</dim>
					<dim>40</dim>
				</port>
			</output>
		</layer>
		<layer id="350" name="Mul_172" type="Swish" version="opset4">
			<input>
				<port id="0" precision="FP32">
					<dim>1</dim>
					<dim>116</dim>
					<dim>26</dim>
					<dim>40</dim>
				</port>
			</input>
			<output>
				<port id="1" precision="FP32" names="input.168">
					<dim>1</dim>
					<dim>116</dim>
					<dim>26</dim>
					<dim>40</dim>
				</port>
			</output>
		</layer>
		<layer id="351" name="Reshape_2924_compressed" type="Const" version="opset1">
			<data element_type="f16" shape="116, 1, 1, 3, 3" offset="293660" size="2088" />
			<output>
				<port id="0" precision="FP16">
					<dim>116</dim>
					<dim>1</dim>
					<dim>1</dim>
					<dim>3</dim>
					<dim>3</dim>
				</port>
			</output>
		</layer>
		<layer id="352" name="Reshape_2924" type="Convert" version="opset1">
			<data destination_type="f32" />
			<rt_info>
				<attribute name="decompression" version="0" />
			</rt_info>
			<input>
				<port id="0" precision="FP16">
					<dim>116</dim>
					<dim>1</dim>
					<dim>1</dim>
					<dim>3</dim>
					<dim>3</dim>
				</port>
			</input>
			<output>
				<port id="1" precision="FP32">
					<dim>116</dim>
					<dim>1</dim>
					<dim>1</dim>
					<dim>3</dim>
					<dim>3</dim>
				</port>
			</output>
		</layer>
		<layer id="353" name="Conv_173/WithoutBiases" type="GroupConvolution" version="opset1">
			<data strides="1, 1" pads_begin="1, 1" pads_end="1, 1" dilations="1, 1" auto_pad="explicit" />
			<input>
				<port id="0" precision="FP32">
					<dim>1</dim>
					<dim>116</dim>
					<dim>26</dim>
					<dim>40</dim>
				</port>
				<port id="1" precision="FP32">
					<dim>116</dim>
					<dim>1</dim>
					<dim>1</dim>
					<dim>3</dim>
					<dim>3</dim>
				</port>
			</input>
			<output>
				<port id="2" precision="FP32">
					<dim>1</dim>
					<dim>116</dim>
					<dim>26</dim>
					<dim>40</dim>
				</port>
			</output>
		</layer>
		<layer id="354" name="Reshape_3010_compressed" type="Const" version="opset1">
			<data element_type="f16" shape="1, 116, 1, 1" offset="295748" size="232" />
			<output>
				<port id="0" precision="FP16">
					<dim>1</dim>
					<dim>116</dim>
					<dim>1</dim>
					<dim>1</dim>
				</port>
			</output>
		</layer>
		<layer id="355" name="Reshape_3010" type="Convert" version="opset1">
			<data destination_type="f32" />
			<rt_info>
				<attribute name="decompression" version="0" />
			</rt_info>
			<input>
				<port id="0" precision="FP16">
					<dim>1</dim>
					<dim>116</dim>
					<dim>1</dim>
					<dim>1</dim>
				</port>
			</input>
			<output>
				<port id="1" precision="FP32">
					<dim>1</dim>
					<dim>116</dim>
					<dim>1</dim>
					<dim>1</dim>
				</port>
			</output>
		</layer>
		<layer id="356" name="Conv_173" type="Add" version="opset1">
			<data auto_broadcast="numpy" />
			<input>
				<port id="0" precision="FP32">
					<dim>1</dim>
					<dim>116</dim>
					<dim>26</dim>
					<dim>40</dim>
				</port>
				<port id="1" precision="FP32">
					<dim>1</dim>
					<dim>116</dim>
					<dim>1</dim>
					<dim>1</dim>
				</port>
			</input>
			<output>
				<port id="2" precision="FP32" names="input.176">
					<dim>1</dim>
					<dim>116</dim>
					<dim>26</dim>
					<dim>40</dim>
				</port>
			</output>
		</layer>
		<layer id="357" name="onnx::Conv_1193_compressed" type="Const" version="opset1">
			<data element_type="f16" shape="116, 116, 1, 1" offset="295980" size="26912" />
			<output>
				<port id="0" precision="FP16">
					<dim>116</dim>
					<dim>116</dim>
					<dim>1</dim>
					<dim>1</dim>
				</port>
			</output>
		</layer>
		<layer id="358" name="onnx::Conv_1193" type="Convert" version="opset1">
			<data destination_type="f32" />
			<rt_info>
				<attribute name="decompression" version="0" />
			</rt_info>
			<input>
				<port id="0" precision="FP16">
					<dim>116</dim>
					<dim>116</dim>
					<dim>1</dim>
					<dim>1</dim>
				</port>
			</input>
			<output>
				<port id="1" precision="FP32" names="onnx::Conv_1193">
					<dim>116</dim>
					<dim>116</dim>
					<dim>1</dim>
					<dim>1</dim>
				</port>
			</output>
		</layer>
		<layer id="359" name="Conv_174/WithoutBiases" type="Convolution" version="opset1">
			<data strides="1, 1" dilations="1, 1" pads_begin="0, 0" pads_end="0, 0" auto_pad="explicit" />
			<input>
				<port id="0" precision="FP32">
					<dim>1</dim>
					<dim>116</dim>
					<dim>26</dim>
					<dim>40</dim>
				</port>
				<port id="1" precision="FP32">
					<dim>116</dim>
					<dim>116</dim>
					<dim>1</dim>
					<dim>1</dim>
				</port>
			</input>
			<output>
				<port id="2" precision="FP32">
					<dim>1</dim>
					<dim>116</dim>
					<dim>26</dim>
					<dim>40</dim>
				</port>
			</output>
		</layer>
		<layer id="360" name="Reshape_3058_compressed" type="Const" version="opset1">
			<data element_type="f16" shape="1, 116, 1, 1" offset="322892" size="232" />
			<output>
				<port id="0" precision="FP16">
					<dim>1</dim>
					<dim>116</dim>
					<dim>1</dim>
					<dim>1</dim>
				</port>
			</output>
		</layer>
		<layer id="361" name="Reshape_3058" type="Convert" version="opset1">
			<data destination_type="f32" />
			<rt_info>
				<attribute name="decompression" version="0" />
			</rt_info>
			<input>
				<port id="0" precision="FP16">
					<dim>1</dim>
					<dim>116</dim>
					<dim>1</dim>
					<dim>1</dim>
				</port>
			</input>
			<output>
				<port id="1" precision="FP32">
					<dim>1</dim>
					<dim>116</dim>
					<dim>1</dim>
					<dim>1</dim>
				</port>
			</output>
		</layer>
		<layer id="362" name="Conv_174" type="Add" version="opset1">
			<data auto_broadcast="numpy" />
			<input>
				<port id="0" precision="FP32">
					<dim>1</dim>
					<dim>116</dim>
					<dim>26</dim>
					<dim>40</dim>
				</port>
				<port id="1" precision="FP32">
					<dim>1</dim>
					<dim>116</dim>
					<dim>1</dim>
					<dim>1</dim>
				</port>
			</input>
			<output>
				<port id="2" precision="FP32" names="onnx::Sigmoid_1192">
					<dim>1</dim>
					<dim>116</dim>
					<dim>26</dim>
					<dim>40</dim>
				</port>
			</output>
		</layer>
		<layer id="363" name="Mul_176" type="Swish" version="opset4">
			<input>
				<port id="0" precision="FP32">
					<dim>1</dim>
					<dim>116</dim>
					<dim>26</dim>
					<dim>40</dim>
				</port>
			</input>
			<output>
				<port id="1" precision="FP32" names="onnx::Concat_517">
					<dim>1</dim>
					<dim>116</dim>
					<dim>26</dim>
					<dim>40</dim>
				</port>
			</output>
		</layer>
		<layer id="364" name="Concat_177" type="Concat" version="opset1">
			<data axis="1" />
			<input>
				<port id="0" precision="FP32">
					<dim>1</dim>
					<dim>116</dim>
					<dim>26</dim>
					<dim>40</dim>
				</port>
				<port id="1" precision="FP32">
					<dim>1</dim>
					<dim>116</dim>
					<dim>26</dim>
					<dim>40</dim>
				</port>
			</input>
			<output>
				<port id="2" precision="FP32" names="out.23">
					<dim>1</dim>
					<dim>232</dim>
					<dim>26</dim>
					<dim>40</dim>
				</port>
			</output>
		</layer>
		<layer id="365" name="Constant_178" type="Const" version="opset1">
			<data element_type="i64" shape="5" offset="153228" size="40" />
			<output>
				<port id="0" precision="I64" names="onnx::Reshape_519">
					<dim>5</dim>
				</port>
			</output>
		</layer>
		<layer id="366" name="Reshape_179" type="Reshape" version="opset1">
…
		<edge from-layer="492" from-port="1" to-layer="493" to-port="1" />
		<edge from-layer="493" from-port="2" to-layer="494" to-port="0" />
		<edge from-layer="494" from-port="1" to-layer="497" to-port="0" />
		<edge from-layer="495" from-port="0" to-layer="496" to-port="0" />
		<edge from-layer="496" from-port="1" to-layer="497" to-port="1" />
		<edge from-layer="497" from-port="2" to-layer="500" to-port="0" />
		<edge from-layer="498" from-port="0" to-layer="499" to-port="0" />
		<edge from-layer="499" from-port="1" to-layer="500" to-port="1" />
		<edge from-layer="500" from-port="2" to-layer="503" to-port="0" />
		<edge from-layer="501" from-port="0" to-layer="502" to-port="0" />
		<edge from-layer="502" from-port="1" to-layer="503" to-port="1" />
		<edge from-layer="503" from-port="2" to-layer="506" to-port="0" />
		<edge from-layer="504" from-port="0" to-layer="505" to-port="0" />
		<edge from-layer="505" from-port="1" to-layer="506" to-port="1" />
		<edge from-layer="506" from-port="2" to-layer="507" to-port="0" />
		<edge from-layer="507" from-port="1" to-layer="508" to-port="1" />
		<edge from-layer="508" from-port="2" to-layer="510" to-port="0" />
		<edge from-layer="509" from-port="0" to-layer="510" to-port="1" />
		<edge from-layer="510" from-port="2" to-layer="512" to-port="0" />
		<edge from-layer="511" from-port="0" to-layer="512" to-port="1" />
		<edge from-layer="512" from-port="2" to-layer="514" to-port="0" />
		<edge from-layer="513" from-port="0" to-layer="514" to-port="1" />
		<edge from-layer="514" from-port="2" to-layer="539" to-port="0" />
		<edge from-layer="514" from-port="2" to-layer="529" to-port="0" />
		<edge from-layer="514" from-port="2" to-layer="518" to-port="0" />
		<edge from-layer="515" from-port="0" to-layer="529" to-port="1" />
		<edge from-layer="516" from-port="0" to-layer="527" to-port="0" />
		<edge from-layer="517" from-port="0" to-layer="527" to-port="1" />
		<edge from-layer="518" from-port="1" to-layer="521" to-port="0" />
		<edge from-layer="519" from-port="0" to-layer="521" to-port="1" />
		<edge from-layer="520" from-port="0" to-layer="521" to-port="2" />
		<edge from-layer="521" from-port="3" to-layer="523" to-port="0" />
		<edge from-layer="522" from-port="0" to-layer="523" to-port="1" />
		<edge from-layer="523" from-port="2" to-layer="525" to-port="0" />
		<edge from-layer="524" from-port="0" to-layer="525" to-port="1" />
		<edge from-layer="525" from-port="2" to-layer="527" to-port="2" />
		<edge from-layer="525" from-port="2" to-layer="533" to-port="2" />
		<edge from-layer="525" from-port="2" to-layer="536" to-port="0" />
		<edge from-layer="526" from-port="0" to-layer="527" to-port="3" />
		<edge from-layer="527" from-port="4" to-layer="529" to-port="2" />
		<edge from-layer="528" from-port="0" to-layer="529" to-port="3" />
		<edge from-layer="529" from-port="4" to-layer="560" to-port="0" />
		<edge from-layer="530" from-port="0" to-layer="533" to-port="0" />
		<edge from-layer="531" from-port="0" to-layer="537" to-port="1" />
		<edge from-layer="531" from-port="0" to-layer="533" to-port="1" />
		<edge from-layer="532" from-port="0" to-layer="537" to-port="3" />
		<edge from-layer="532" from-port="0" to-layer="533" to-port="3" />
		<edge from-layer="533" from-port="4" to-layer="539" to-port="1" />
		<edge from-layer="534" from-port="0" to-layer="537" to-port="0" />
		<edge from-layer="535" from-port="0" to-layer="536" to-port="1" />
		<edge from-layer="536" from-port="2" to-layer="537" to-port="2" />
		<edge from-layer="537" from-port="4" to-layer="539" to-port="2" />
		<edge from-layer="538" from-port="0" to-layer="539" to-port="3" />
		<edge from-layer="539" from-port="4" to-layer="542" to-port="0" />
		<edge from-layer="540" from-port="0" to-layer="541" to-port="0" />
		<edge from-layer="541" from-port="1" to-layer="542" to-port="1" />
		<edge from-layer="542" from-port="2" to-layer="545" to-port="0" />
		<edge from-layer="543" from-port="0" to-layer="544" to-port="0" />
		<edge from-layer="544" from-port="1" to-layer="545" to-port="1" />
		<edge from-layer="545" from-port="2" to-layer="546" to-port="0" />
		<edge from-layer="546" from-port="1" to-layer="549" to-port="0" />
		<edge from-layer="547" from-port="0" to-layer="548" to-port="0" />
		<edge from-layer="548" from-port="1" to-layer="549" to-port="1" />
		<edge from-layer="549" from-port="2" to-layer="552" to-port="0" />
		<edge from-layer="550" from-port="0" to-layer="551" to-port="0" />
		<edge from-layer="551" from-port="1" to-layer="552" to-port="1" />
		<edge from-layer="552" from-port="2" to-layer="555" to-port="0" />
		<edge from-layer="553" from-port="0" to-layer="554" to-port="0" />
		<edge from-layer="554" from-port="1" to-layer="555" to-port="1" />
		<edge from-layer="555" from-port="2" to-layer="558" to-port="0" />
		<edge from-layer="556" from-port="0" to-layer="557" to-port="0" />
		<edge from-layer="557" from-port="1" to-layer="558" to-port="1" />
		<edge from-layer="558" from-port="2" to-layer="559" to-port="0" />
		<edge from-layer="559" from-port="1" to-layer="560" to-port="1" />
		<edge from-layer="560" from-port="2" to-layer="562" to-port="0" />
		<edge from-layer="561" from-port="0" to-layer="562" to-port="1" />
		<edge from-layer="562" from-port="2" to-layer="564" to-port="0" />
		<edge from-layer="563" from-port="0" to-layer="564" to-port="1" />
		<edge from-layer="564" from-port="2" to-layer="566" to-port="0" />
		<edge from-layer="565" from-port="0" to-layer="566" to-port="1" />
		<edge from-layer="566" from-port="2" to-layer="570" to-port="0" />
		<edge from-layer="566" from-port="2" to-layer="591" to-port="0" />
		<edge from-layer="566" from-port="2" to-layer="581" to-port="0" />
		<edge from-layer="567" from-port="0" to-layer="581" to-port="1" />
		<edge from-layer="568" from-port="0" to-layer="579" to-port="0" />
		<edge from-layer="569" from-port="0" to-layer="579" to-port="1" />
		<edge from-layer="570" from-port="1" to-layer="573" to-port="0" />
		<edge from-layer="571" from-port="0" to-layer="573" to-port="1" />
		<edge from-layer="572" from-port="0" to-layer="573" to-port="2" />
		<edge from-layer="573" from-port="3" to-layer="575" to-port="0" />
		<edge from-layer="574" from-port="0" to-layer="575" to-port="1" />
		<edge from-layer="575" from-port="2" to-layer="577" to-port="0" />
		<edge from-layer="576" from-port="0" to-layer="577" to-port="1" />
		<edge from-layer="577" from-port="2" to-layer="585" to-port="2" />
		<edge from-layer="577" from-port="2" to-layer="579" to-port="2" />
		<edge from-layer="577" from-port="2" to-layer="588" to-port="0" />
		<edge from-layer="578" from-port="0" to-layer="579" to-port="3" />
		<edge from-layer="579" from-port="4" to-layer="581" to-port="2" />
		<edge from-layer="580" from-port="0" to-layer="581" to-port="3" />
		<edge from-layer="581" from-port="4" to-layer="612" to-port="0" />
		<edge from-layer="582" from-port="0" to-layer="585" to-port="0" />
		<edge from-layer="583" from-port="0" to-layer="585" to-port="1" />
		<edge from-layer="583" from-port="0" to-layer="589" to-port="1" />
		<edge from-layer="584" from-port="0" to-layer="589" to-port="3" />
		<edge from-layer="584" from-port="0" to-layer="585" to-port="3" />
		<edge from-layer="585" from-port="4" to-layer="591" to-port="1" />
		<edge from-layer="586" from-port="0" to-layer="589" to-port="0" />
		<edge from-layer="587" from-port="0" to-layer="588" to-port="1" />
		<edge from-layer="588" from-port="2" to-layer="589" to-port="2" />
		<edge from-layer="589" from-port="4" to-layer="591" to-port="2" />
		<edge from-layer="590" from-port="0" to-layer="591" to-port="3" />
		<edge from-layer="591" from-port="4" to-layer="594" to-port="0" />
		<edge from-layer="592" from-port="0" to-layer="593" to-port="0" />
		<edge from-layer="593" from-port="1" to-layer="594" to-port="1" />
		<edge from-layer="594" from-port="2" to-layer="597" to-port="0" />
		<edge from-layer="595" from-port="0" to-layer="596" to-port="0" />
		<edge from-layer="596" from-port="1" to-layer="597" to-port="1" />
		<edge from-layer="597" from-port="2" to-layer="598" to-port="0" />
		<edge from-layer="598" from-port="1" to-layer="601" to-port="0" />
		<edge from-layer="599" from-port="0" to-layer="600" to-port="0" />
		<edge from-layer="600" from-port="1" to-layer="601" to-port="1" />
		<edge from-layer="601" from-port="2" to-layer="604" to-port="0" />
		<edge from-layer="602" from-port="0" to-layer="603" to-port="0" />
		<edge from-layer="603" from-port="1" to-layer="604" to-port="1" />
		<edge from-layer="604" from-port="2" to-layer="607" to-port="0" />
		<edge from-layer="605" from-port="0" to-layer="606" to-port="0" />
		<edge from-layer="606" from-port="1" to-layer="607" to-port="1" />
		<edge from-layer="607" from-port="2" to-layer="610" to-port="0" />
		<edge from-layer="608" from-port="0" to-layer="609" to-port="0" />
		<edge from-layer="609" from-port="1" to-layer="610" to-port="1" />
		<edge from-layer="610" from-port="2" to-layer="611" to-port="0" />
		<edge from-layer="611" from-port="1" to-layer="612" to-port="1" />
		<edge from-layer="612" from-port="2" to-layer="614" to-port="0" />
		<edge from-layer="613" from-port="0" to-layer="614" to-port="1" />
		<edge from-layer="614" from-port="2" to-layer="616" to-port="0" />
		<edge from-layer="615" from-port="0" to-layer="616" to-port="1" />
		<edge from-layer="616" from-port="2" to-layer="618" to-port="0" />
		<edge from-layer="617" from-port="0" to-layer="618" to-port="1" />
		<edge from-layer="618" from-port="2" to-layer="621" to-port="0" />
		<edge from-layer="619" from-port="0" to-layer="620" to-port="0" />
		<edge from-layer="620" from-port="1" to-layer="621" to-port="1" />
		<edge from-layer="621" from-port="2" to-layer="624" to-port="0" />
		<edge from-layer="622" from-port="0" to-layer="623" to-port="0" />
		<edge from-layer="623" from-port="1" to-layer="624" to-port="1" />
		<edge from-layer="624" from-port="2" to-layer="625" to-port="0" />
		<edge from-layer="625" from-port="1" to-layer="1000" to-port="1" />
		<edge from-layer="625" from-port="1" to-layer="631" to-port="0" />
		<edge from-layer="625" from-port="1" to-layer="626" to-port="0" />
		<edge from-layer="626" from-port="1" to-layer="627" to-port="0" />
		<edge from-layer="627" from-port="1" to-layer="629" to-port="0" />
		<edge from-layer="628" from-port="0" to-layer="629" to-port="1" />
		<edge from-layer="628" from-port="0" to-layer="631" to-port="2" />
		<edge from-layer="629" from-port="2" to-layer="630" to-port="0" />
		<edge from-layer="630" from-port="1" to-layer="631" to-port="1" />
		<edge from-layer="631" from-port="3" to-layer="632" to-port="0" />
		<edge from-layer="632" from-port="2" to-layer="656" to-port="0" />
		<edge from-layer="632" from-port="2" to-layer="635" to-port="0" />
		<edge from-layer="633" from-port="0" to-layer="634" to-port="0" />
		<edge from-layer="634" from-port="1" to-layer="635" to-port="1" />
		<edge from-layer="635" from-port="2" to-layer="638" to-port="0" />
		<edge from-layer="636" from-port="0" to-layer="637" to-port="0" />
		<edge from-layer="637" from-port="1" to-layer="638" to-port="1" />
		<edge from-layer="638" from-port="2" to-layer="639" to-port="0" />
		<edge from-layer="639" from-port="1" to-layer="642" to-port="0" />
		<edge from-layer="640" from-port="0" to-layer="641" to-port="0" />
		<edge from-layer="641" from-port="1" to-layer="642" to-port="1" />
		<edge from-layer="642" from-port="2" to-layer="645" to-port="0" />
		<edge from-layer="643" from-port="0" to-layer="644" to-port="0" />
		<edge from-layer="644" from-port="1" to-layer="645" to-port="1" />
		<edge from-layer="645" from-port="2" to-layer="646" to-port="0" />
		<edge from-layer="646" from-port="1" to-layer="649" to-port="0" />
		<edge from-layer="647" from-port="0" to-layer="648" to-port="0" />
		<edge from-layer="648" from-port="1" to-layer="649" to-port="1" />
		<edge from-layer="649" from-port="2" to-layer="652" to-port="0" />
		<edge from-layer="650" from-port="0" to-layer="651" to-port="0" />
		<edge from-layer="651" from-port="1" to-layer="652" to-port="1" />
		<edge from-layer="652" from-port="2" to-layer="653" to-port="0" />
		<edge from-layer="653" from-port="1" to-layer="661" to-port="0" />
		<edge from-layer="654" from-port="0" to-layer="655" to-port="0" />
		<edge from-layer="655" from-port="1" to-layer="656" to-port="1" />
		<edge from-layer="656" from-port="2" to-layer="659" to-port="0" />
		<edge from-layer="657" from-port="0" to-layer="658" to-port="0" />
		<edge from-layer="658" from-port="1" to-layer="659" to-port="1" />
		<edge from-layer="659" from-port="2" to-layer="660" to-port="0" />
		<edge from-layer="660" from-port="1" to-layer="661" to-port="1" />
		<edge from-layer="661" from-port="2" to-layer="664" to-port="0" />
		<edge from-layer="662" from-port="0" to-layer="663" to-port="0" />
		<edge from-layer="663" from-port="1" to-layer="664" to-port="1" />
		<edge from-layer="664" from-port="2" to-layer="667" to-port="0" />
		<edge from-layer="665" from-port="0" to-layer="666" to-port="0" />
		<edge from-layer="666" from-port="1" to-layer="667" to-port="1" />
		<edge from-layer="667" from-port="2" to-layer="668" to-port="0" />
		<edge from-layer="668" from-port="1" to-layer="671" to-port="0" />
		<edge from-layer="669" from-port="0" to-layer="670" to-port="0" />
		<edge from-layer="670" from-port="1" to-layer="671" to-port="1" />
		<edge from-layer="671" from-port="2" to-layer="674" to-port="0" />
		<edge from-layer="672" from-port="0" to-layer="673" to-port="0" />
		<edge from-layer="673" from-port="1" to-layer="674" to-port="1" />
		<edge from-layer="674" from-port="2" to-layer="675" to-port="0" />
		<edge from-layer="675" from-port="1" to-layer="841" to-port="1" />
		<edge from-layer="675" from-port="1" to-layer="681" to-port="0" />
		<edge from-layer="675" from-port="1" to-layer="676" to-port="0" />
		<edge from-layer="676" from-port="1" to-layer="677" to-port="0" />
		<edge from-layer="677" from-port="1" to-layer="679" to-port="0" />
		<edge from-layer="678" from-port="0" to-layer="679" to-port="1" />
		<edge from-layer="678" from-port="0" to-layer="681" to-port="2" />
		<edge from-layer="679" from-port="2" to-layer="680" to-port="0" />
		<edge from-layer="680" from-port="1" to-layer="681" to-port="1" />
		<edge from-layer="681" from-port="3" to-layer="682" to-port="0" />
		<edge from-layer="682" from-port="2" to-layer="685" to-port="0" />
		<edge from-layer="682" from-port="2" to-layer="706" to-port="0" />
		<edge from-layer="683" from-port="0" to-layer="684" to-port="0" />
		<edge from-layer="684" from-port="1" to-layer="685" to-port="1" />
		<edge from-layer="685" from-port="2" to-layer="688" to-port="0" />
		<edge from-layer="686" from-port="0" to-layer="687" to-port="0" />
		<edge from-layer="687" from-port="1" to-layer="688" to-port="1" />
		<edge from-layer="688" from-port="2" to-layer="689" to-port="0" />
		<edge from-layer="689" from-port="1" to-layer="692" to-port="0" />
		<edge from-layer="690" from-port="0" to-layer="691" to-port="0" />
		<edge from-layer="691" from-port="1" to-layer="692" to-port="1" />
		<edge from-layer="692" from-port="2" to-layer="695" to-port="0" />
		<edge from-layer="693" from-port="0" to-layer="694" to-port="0" />
		<edge from-layer="694" from-port="1" to-layer="695" to-port="1" />
		<edge from-layer="695" from-port="2" to-layer="696" to-port="0" />
		<edge from-layer="696" from-port="1" to-layer="699" to-port="0" />
		<edge from-layer="697" from-port="0" to-layer="698" to-port="0" />
		<edge from-layer="698" from-port="1" to-layer="699" to-port="1" />
		<edge from-layer="699" from-port="2" to-layer="702" to-port="0" />
		<edge from-layer="700" from-port="0" to-layer="701" to-port="0" />
		<edge from-layer="701" from-port="1" to-layer="702" to-port="1" />
		<edge from-layer="702" from-port="2" to-layer="703" to-port="0" />
		<edge from-layer="703" from-port="1" to-layer="711" to-port="0" />
		<edge from-layer="704" from-port="0" to-layer="705" to-port="0" />
		<edge from-layer="705" from-port="1" to-layer="706" to-port="1" />
		<edge from-layer="706" from-port="2" to-layer="709" to-port="0" />
		<edge from-layer="707" from-port="0" to-layer="708" to-port="0" />
		<edge from-layer="708" from-port="1" to-layer="709" to-port="1" />
		<edge from-layer="709" from-port="2" to-layer="710" to-port="0" />
		<edge from-layer="710" from-port="1" to-layer="711" to-port="1" />
		<edge from-layer="711" from-port="2" to-layer="714" to-port="0" />
		<edge from-layer="712" from-port="0" to-layer="713" to-port="0" />
		<edge from-layer="713" from-port="1" to-layer="714" to-port="1" />
		<edge from-layer="714" from-port="2" to-layer="717" to-port="0" />
		<edge from-layer="715" from-port="0" to-layer="716" to-port="0" />
		<edge from-layer="716" from-port="1" to-layer="717" to-port="1" />
		<edge from-layer="717" from-port="2" to-layer="718" to-port="0" />
		<edge from-layer="718" from-port="1" to-layer="721" to-port="0" />
		<edge from-layer="718" from-port="1" to-layer="836" to-port="0" />
		<edge from-layer="719" from-port="0" to-layer="720" to-port="0" />
		<edge from-layer="720" from-port="1" to-layer="721" to-port="1" />
		<edge from-layer="721" from-port="2" to-layer="724" to-port="0" />
		<edge from-layer="722" from-port="0" to-layer="723" to-port="0" />
		<edge from-layer="723" from-port="1" to-layer="724" to-port="1" />
		<edge from-layer="724" from-port="2" to-layer="726" to-port="0" />
		<edge from-layer="725" from-port="0" to-layer="726" to-port="1" />
		<edge from-layer="726" from-port="2" to-layer="728" to-port="0" />
		<edge from-layer="727" from-port="0" to-layer="728" to-port="1" />
		<edge from-layer="728" from-port="2" to-layer="741" to-port="0" />
		<edge from-layer="728" from-port="2" to-layer="732" to-port="0" />
		<edge from-layer="728" from-port="2" to-layer="737" to-port="0" />
		<edge from-layer="729" from-port="0" to-layer="732" to-port="1" />
		<edge from-layer="730" from-port="0" to-layer="732" to-port="2" />
		<edge from-layer="731" from-port="0" to-layer="732" to-port="3" />
		<edge from-layer="732" from-port="4" to-layer="733" to-port="0" />
		<edge from-layer="733" from-port="1" to-layer="743" to-port="0" />
		<edge from-layer="734" from-port="0" to-layer="737" to-port="1" />
		<edge from-layer="735" from-port="0" to-layer="737" to-port="2" />
		<edge from-layer="736" from-port="0" to-layer="737" to-port="3" />
		<edge from-layer="737" from-port="4" to-layer="743" to-port="1" />
		<edge from-layer="738" from-port="0" to-layer="741" to-port="1" />
		<edge from-layer="739" from-port="0" to-layer="741" to-port="2" />
		<edge from-layer="740" from-port="0" to-layer="741" to-port="3" />
		<edge from-layer="741" from-port="4" to-layer="742" to-port="0" />
		<edge from-layer="742" from-port="1" to-layer="743" to-port="2" />
		<edge from-layer="743" from-port="3" to-layer="810" to-port="0" />
		<edge from-layer="743" from-port="3" to-layer="820" to-port="0" />
		<edge from-layer="743" from-port="3" to-layer="830" to-port="0" />
		<edge from-layer="743" from-port="3" to-layer="790" to-port="0" />
		<edge from-layer="743" from-port="3" to-layer="800" to-port="0" />
		<edge from-layer="743" from-port="3" to-layer="780" to-port="0" />
		<edge from-layer="743" from-port="3" to-layer="776" to-port="0" />
		<edge from-layer="743" from-port="3" to-layer="763" to-port="0" />
		<edge from-layer="743" from-port="3" to-layer="747" to-port="0" />
		<edge from-layer="744" from-port="0" to-layer="747" to-port="1" />
		<edge from-layer="745" from-port="0" to-layer="747" to-port="2" />
		<edge from-layer="746" from-port="0" to-layer="747" to-port="3" />
		<edge from-layer="747" from-port="4" to-layer="750" to-port="0" />
		<edge from-layer="748" from-port="0" to-layer="749" to-port="0" />
		<edge from-layer="749" from-port="1" to-layer="750" to-port="1" />
		<edge from-layer="750" from-port="2" to-layer="753" to-port="0" />
		<edge from-layer="751" from-port="0" to-layer="752" to-port="0" />
		<edge from-layer="752" from-port="1" to-layer="753" to-port="1" />
		<edge from-layer="753" from-port="2" to-layer="756" to-port="0" />
		<edge from-layer="754" from-port="0" to-layer="755" to-port="0" />
		<edge from-layer="755" from-port="1" to-layer="756" to-port="1" />
		<edge from-layer="756" from-port="2" to-layer="759" to-port="0" />
		<edge from-layer="757" from-port="0" to-layer="758" to-port="0" />
		<edge from-layer="758" from-port="1" to-layer="759" to-port="1" />
		<edge from-layer="759" from-port="2" to-layer="831" to-port="0" />
		<edge from-layer="760" from-port="0" to-layer="763" to-port="1" />
		<edge from-layer="761" from-port="0" to-layer="763" to-port="2" />
		<edge from-layer="762" from-port="0" to-layer="763" to-port="3" />
		<edge from-layer="763" from-port="4" to-layer="766" to-port="0" />
		<edge from-layer="764" from-port="0" to-layer="765" to-port="0" />
		<edge from-layer="765" from-port="1" to-layer="766" to-port="1" />
		<edge from-layer="766" from-port="2" to-layer="769" to-port="0" />
		<edge from-layer="767" from-port="0" to-layer="768" to-port="0" />
		<edge from-layer="768" from-port="1" to-layer="769" to-port="1" />
		<edge from-layer="769" from-port="2" to-layer="772" to-port="0" />
		<edge from-layer="770" from-port="0" to-layer="771" to-port="0" />
		<edge from-layer="771" from-port="1" to-layer="772" to-port="1" />
		<edge from-layer="772" from-port="2" to-layer="831" to-port="1" />
		<edge from-layer="773" from-port="0" to-layer="776" to-port="1" />
		<edge from-layer="774" from-port="0" to-layer="776" to-port="2" />
		<edge from-layer="775" from-port="0" to-layer="776" to-port="3" />
		<edge from-layer="776" from-port="4" to-layer="831" to-port="2" />
		<edge from-layer="777" from-port="0" to-layer="780" to-port="1" />
		<edge from-layer="778" from-port="0" to-layer="780" to-port="2" />
		<edge from-layer="779" from-port="0" to-layer="780" to-port="3" />
		<edge from-layer="780" from-port="4" to-layer="783" to-port="0" />
		<edge from-layer="781" from-port="0" to-layer="782" to-port="0" />
		<edge from-layer="782" from-port="1" to-layer="783" to-port="1" />
		<edge from-layer="783" from-port="2" to-layer="786" to-port="0" />
		<edge from-layer="784" from-port="0" to-layer="785" to-port="0" />
		<edge from-layer="785" from-port="1" to-layer="786" to-port="1" />
		<edge from-layer="786" from-port="2" to-layer="831" to-port="3" />
		<edge from-layer="787" from-port="0" to-layer="790" to-port="1" />
		<edge from-layer="788" from-port="0" to-layer="790" to-port="2" />
		<edge from-layer="789" from-port="0" to-layer="790" to-port="3" />
		<edge from-layer="790" from-port="4" to-layer="793" to-port="0" />
		<edge from-layer="791" from-port="0" to-layer="792" to-port="0" />
		<edge from-layer="792" from-port="1" to-layer="793" to-port="1" />
		<edge from-layer="793" from-port="2" to-layer="796" to-port="0" />
		<edge from-layer="794" from-port="0" to-layer="795" to-port="0" />
		<edge from-layer="795" from-port="1" to-layer="796" to-port="1" />
		<edge from-layer="796" from-port="2" to-layer="831" to-port="4" />
		<edge from-layer="797" from-port="0" to-layer="800" to-port="1" />
		<edge from-layer="798" from-port="0" to-layer="800" to-port="2" />
		<edge from-layer="799" from-port="0" to-layer="800" to-port="3" />
		<edge from-layer="800" from-port="4" to-layer="803" to-port="0" />
		<edge from-layer="801" from-port="0" to-layer="802" to-port="0" />
		<edge from-layer="802" from-port="1" to-layer="803" to-port="1" />
		<edge from-layer="803" from-port="2" to-layer="806" to-port="0" />
		<edge from-layer="804" from-port="0" to-layer="805" to-port="0" />
		<edge from-layer="805" from-port="1" to-layer="806" to-port="1" />
		<edge from-layer="806" from-port="2" to-layer="831" to-port="5" />
		<edge from-layer="807" from-port="0" to-layer="810" to-port="1" />
		<edge from-layer="808" from-port="0" to-layer="810" to-port="2" />
		<edge from-layer="809" from-port="0" to-layer="810" to-port="3" />
		<edge from-layer="810" from-port="4" to-layer="813" to-port="0" />
		<edge from-layer="811" from-port="0" to-layer="812" to-port="0" />
		<edge from-layer="812" from-port="1" to-layer="813" to-port="1" />
		<edge from-layer="813" from-port="2" to-layer="816" to-port="0" />
		<edge from-layer="814" from-port="0" to-layer="815" to-port="0" />
		<edge from-layer="815" from-port="1" to-layer="816" to-port="1" />
		<edge from-layer="816" from-port="2" to-layer="831" to-port="6" />
		<edge from-layer="817" from-port="0" to-layer="820" to-port="1" />
		<edge from-layer="818" from-port="0" to-layer="820" to-port="2" />
		<edge from-layer="819" from-port="0" to-layer="820" to-port="3" />
		<edge from-layer="820" from-port="4" to-layer="823" to-port="0" />
		<edge from-layer="821" from-port="0" to-layer="822" to-port="0" />
		<edge from-layer="822" from-port="1" to-layer="823" to-port="1" />
		<edge from-layer="823" from-port="2" to-layer="826" to-port="0" />
		<edge from-layer="824" from-port="0" to-layer="825" to-port="0" />
		<edge from-layer="825" from-port="1" to-layer="826" to-port="1" />
		<edge from-layer="826" from-port="2" to-layer="831" to-port="7" />
		<edge from-layer="827" from-port="0" to-layer="830" to-port="1" />
		<edge from-layer="828" from-port="0" to-layer="830" to-port="2" />
		<edge from-layer="829" from-port="0" to-layer="830" to-port="3" />
		<edge from-layer="830" from-port="4" to-layer="831" to-port="8" />
		<edge from-layer="831" from-port="9" to-layer="833" to-port="0" />
		<edge from-layer="832" from-port="0" to-layer="833" to-port="1" />
		<edge from-layer="833" from-port="2" to-layer="1152" to-port="0" />
		<edge from-layer="834" from-port="0" to-layer="835" to-port="0" />
		<edge from-layer="835" from-port="1" to-layer="836" to-port="1" />
		<edge from-layer="836" from-port="2" to-layer="839" to-port="0" />
		<edge from-layer="837" from-port="0" to-layer="838" to-port="0" />
		<edge from-layer="838" from-port="1" to-layer="839" to-port="1" />
		<edge from-layer="839" from-port="2" to-layer="840" to-port="0" />
		<edge from-layer="840" from-port="1" to-layer="841" to-port="0" />
		<edge from-layer="841" from-port="2" to-layer="865" to-port="0" />
		<edge from-layer="841" from-port="2" to-layer="844" to-port="0" />
		<edge from-layer="842" from-port="0" to-layer="843" to-port="0" />
		<edge from-layer="843" from-port="1" to-layer="844" to-port="1" />
		<edge from-layer="844" from-port="2" to-layer="847" to-port="0" />
		<edge from-layer="845" from-port="0" to-layer="846" to-port="0" />
		<edge from-layer="846" from-port="1" to-layer="847" to-port="1" />
		<edge from-layer="847" from-port="2" to-layer="848" to-port="0" />
		<edge from-layer="848" from-port="1" to-layer="851" to-port="0" />
		<edge from-layer="849" from-port="0" to-layer="850" to-port="0" />
		<edge from-layer="850" from-port="1" to-layer="851" to-port="1" />
		<edge from-layer="851" from-port="2" to-layer="854" to-port="0" />
		<edge from-layer="852" from-port="0" to-layer="853" to-port="0" />
		<edge from-layer="853" from-port="1" to-layer="854" to-port="1" />
		<edge from-layer="854" from-port="2" to-layer="855" to-port="0" />
		<edge from-layer="855" from-port="1" to-layer="858" to-port="0" />
		<edge from-layer="856" from-port="0" to-layer="857" to-port="0" />
		<edge from-layer="857" from-port="1" to-layer="858" to-port="1" />
		<edge from-layer="858" from-port="2" to-layer="861" to-port="0" />
		<edge from-layer="859" from-port="0" to-layer="860" to-port="0" />
		<edge from-layer="860" from-port="1" to-layer="861" to-port="1" />
		<edge from-layer="861" from-port="2" to-layer="862" to-port="0" />
		<edge from-layer="862" from-port="1" to-layer="870" to-port="0" />
		<edge from-layer="863" from-port="0" to-layer="864" to-port="0" />
		<edge from-layer="864" from-port="1" to-layer="865" to-port="1" />
		<edge from-layer="865" from-port="2" to-layer="868" to-port="0" />
		<edge from-layer="866" from-port="0" to-layer="867" to-port="0" />
		<edge from-layer="867" from-port="1" to-layer="868" to-port="1" />
		<edge from-layer="868" from-port="2" to-layer="869" to-port="0" />
		<edge from-layer="869" from-port="1" to-layer="870" to-port="1" />
		<edge from-layer="870" from-port="2" to-layer="873" to-port="0" />
		<edge from-layer="871" from-port="0" to-layer="872" to-port="0" />
		<edge from-layer="872" from-port="1" to-layer="873" to-port="1" />
		<edge from-layer="873" from-port="2" to-layer="876" to-port="0" />
		<edge from-layer="874" from-port="0" to-layer="875" to-port="0" />
		<edge from-layer="875" from-port="1" to-layer="876" to-port="1" />
		<edge from-layer="876" from-port="2" to-layer="877" to-port="0" />
		<edge from-layer="877" from-port="1" to-layer="880" to-port="0" />
		<edge from-layer="877" from-port="1" to-layer="995" to-port="0" />
		<edge from-layer="878" from-port="0" to-layer="879" to-port="0" />
		<edge from-layer="879" from-port="1" to-layer="880" to-port="1" />
		<edge from-layer="880" from-port="2" to-layer="883" to-port="0" />
		<edge from-layer="881" from-port="0" to-layer="882" to-port="0" />
		<edge from-layer="882" from-port="1" to-layer="883" to-port="1" />
		<edge from-layer="883" from-port="2" to-layer="885" to-port="0" />
		<edge from-layer="884" from-port="0" to-layer="885" to-port="1" />
		<edge from-layer="885" from-port="2" to-layer="887" to-port="0" />
		<edge from-layer="886" from-port="0" to-layer="887" to-port="1" />
		<edge from-layer="887" from-port="2" to-layer="891" to-port="0" />
		<edge from-layer="887" from-port="2" to-layer="900" to-port="0" />
		<edge from-layer="887" from-port="2" to-layer="896" to-port="0" />
		<edge from-layer="888" from-port="0" to-layer="891" to-port="1" />
		<edge from-layer="889" from-port="0" to-layer="891" to-port="2" />
		<edge from-layer="890" from-port="0" to-layer="891" to-port="3" />
		<edge from-layer="891" from-port="4" to-layer="892" to-port="0" />
		<edge from-layer="892" from-port="1" to-layer="902" to-port="0" />
		<edge from-layer="893" from-port="0" to-layer="896" to-port="1" />
		<edge from-layer="894" from-port="0" to-layer="896" to-port="2" />
		<edge from-layer="895" from-port="0" to-layer="896" to-port="3" />
		<edge from-layer="896" from-port="4" to-layer="902" to-port="1" />
		<edge from-layer="897" from-port="0" to-layer="900" to-port="1" />
		<edge from-layer="898" from-port="0" to-layer="900" to-port="2" />
		<edge from-layer="899" from-port="0" to-layer="900" to-port="3" />
		<edge from-layer="900" from-port="4" to-layer="901" to-port="0" />
		<edge from-layer="901" from-port="1" to-layer="902" to-port="2" />
		<edge from-layer="902" from-port="3" to-layer="949" to-port="0" />
		<edge from-layer="902" from-port="3" to-layer="959" to-port="0" />
		<edge from-layer="902" from-port="3" to-layer="969" to-port="0" />
		<edge from-layer="902" from-port="3" to-layer="979" to-port="0" />
		<edge from-layer="902" from-port="3" to-layer="939" to-port="0" />
		<edge from-layer="902" from-port="3" to-layer="989" to-port="0" />
		<edge from-layer="902" from-port="3" to-layer="935" to-port="0" />
		<edge from-layer="902" from-port="3" to-layer="922" to-port="0" />
		<edge from-layer="902" from-port="3" to-layer="906" to-port="0" />
		<edge from-layer="903" from-port="0" to-layer="906" to-port="1" />
		<edge from-layer="904" from-port="0" to-layer="906" to-port="2" />
		<edge from-layer="905" from-port="0" to-layer="906" to-port="3" />
		<edge from-layer="906" from-port="4" to-layer="909" to-port="0" />
		<edge from-layer="907" from-port="0" to-layer="908" to-port="0" />
		<edge from-layer="908" from-port="1" to-layer="909" to-port="1" />
		<edge from-layer="909" from-port="2" to-layer="912" to-port="0" />
		<edge from-layer="910" from-port="0" to-layer="911" to-port="0" />
		<edge from-layer="911" from-port="1" to-layer="912" to-port="1" />
		<edge from-layer="912" from-port="2" to-layer="915" to-port="0" />
		<edge from-layer="913" from-port="0" to-layer="914" to-port="0" />
		<edge from-layer="914" from-port="1" to-layer="915" to-port="1" />
		<edge from-layer="915" from-port="2" to-layer="918" to-port="0" />
		<edge from-layer="916" from-port="0" to-layer="917" to-port="0" />
		<edge from-layer="917" from-port="1" to-layer="918" to-port="1" />
		<edge from-layer="918" from-port="2" to-layer="990" to-port="0" />
		<edge from-layer="919" from-port="0" to-layer="922" to-port="1" />
		<edge from-layer="920" from-port="0" to-layer="922" to-port="2" />
		<edge from-layer="921" from-port="0" to-layer="922" to-port="3" />
		<edge from-layer="922" from-port="4" to-layer="925" to-port="0" />
		<edge from-layer="923" from-port="0" to-layer="924" to-port="0" />
		<edge from-layer="924" from-port="1" to-layer="925" to-port="1" />
		<edge from-layer="925" from-port="2" to-layer="928" to-port="0" />
		<edge from-layer="926" from-port="0" to-layer="927" to-port="0" />
		<edge from-layer="927" from-port="1" to-layer="928" to-port="1" />
		<edge from-layer="928" from-port="2" to-layer="931" to-port="0" />
		<edge from-layer="929" from-port="0" to-layer="930" to-port="0" />
		<edge from-layer="930" from-port="1" to-layer="931" to-port="1" />
		<edge from-layer="931" from-port="2" to-layer="990" to-port="1" />
		<edge from-layer="932" from-port="0" to-layer="935" to-port="1" />
		<edge from-layer="933" from-port="0" to-layer="935" to-port="2" />
		<edge from-layer="934" from-port="0" to-layer="935" to-port="3" />
		<edge from-layer="935" from-port="4" to-layer="990" to-port="2" />
		<edge from-layer="936" from-port="0" to-layer="939" to-port="1" />
		<edge from-layer="937" from-port="0" to-layer="939" to-port="2" />
		<edge from-layer="938" from-port="0" to-layer="939" to-port="3" />
		<edge from-layer="939" from-port="4" to-layer="942" to-port="0" />
		<edge from-layer="940" from-port="0" to-layer="941" to-port="0" />
		<edge from-layer="941" from-port="1" to-layer="942" to-port="1" />
		<edge from-layer="942" from-port="2" to-layer="945" to-port="0" />
		<edge from-layer="943" from-port="0" to-layer="944" to-port="0" />
		<edge from-layer="944" from-port="1" to-layer="945" to-port="1" />
		<edge from-layer="945" from-port="2" to-layer="990" to-port="3" />
		<edge from-layer="946" from-port="0" to-layer="949" to-port="1" />
		<edge from-layer="947" from-port="0" to-layer="949" to-port="2" />
		<edge from-layer="948" from-port="0" to-layer="949" to-port="3" />
		<edge from-layer="949" from-port="4" to-layer="952" to-port="0" />
		<edge from-layer="950" from-port="0" to-layer="951" to-port="0" />
		<edge from-layer="951" from-port="1" to-layer="952" to-port="1" />
		<edge from-layer="952" from-port="2" to-layer="955" to-port="0" />
		<edge from-layer="953" from-port="0" to-layer="954" to-port="0" />
		<edge from-layer="954" from-port="1" to-layer="955" to-port="1" />
		<edge from-layer="955" from-port="2" to-layer="990" to-port="4" />
		<edge from-layer="956" from-port="0" to-layer="959" to-port="1" />
		<edge from-layer="957" from-port="0" to-layer="959" to-port="2" />
		<edge from-layer="958" from-port="0" to-layer="959" to-port="3" />
		<edge from-layer="959" from-port="4" to-layer="962" to-port="0" />
		<edge from-layer="960" from-port="0" to-layer="961" to-port="0" />
		<edge from-layer="961" from-port="1" to-layer="962" to-port="1" />
		<edge from-layer="962" from-port="2" to-layer="965" to-port="0" />
		<edge from-layer="963" from-port="0" to-layer="964" to-port="0" />
		<edge from-layer="964" from-port="1" to-layer="965" to-port="1" />
		<edge from-layer="965" from-port="2" to-layer="990" to-port="5" />
		<edge from-layer="966" from-port="0" to-layer="969" to-port="1" />
		<edge from-layer="967" from-port="0" to-layer="969" to-port="2" />
		<edge from-layer="968" from-port="0" to-layer="969" to-port="3" />
		<edge from-layer="969" from-port="4" to-layer="972" to-port="0" />
		<edge from-layer="970" from-port="0" to-layer="971" to-port="0" />
		<edge from-layer="971" from-port="1" to-layer="972" to-port="1" />
		<edge from-layer="972" from-port="2" to-layer="975" to-port="0" />
		<edge from-layer="973" from-port="0" to-layer="974" to-port="0" />
		<edge from-layer="974" from-port="1" to-layer="975" to-port="1" />
		<edge from-layer="975" from-port="2" to-layer="990" to-port="6" />
		<edge from-layer="976" from-port="0" to-layer="979" to-port="1" />
		<edge from-layer="977" from-port="0" to-layer="979" to-port="2" />
		<edge from-layer="978" from-port="0" to-layer="979" to-port="3" />
		<edge from-layer="979" from-port="4" to-layer="982" to-port="0" />
		<edge from-layer="980" from-port="0" to-layer="981" to-port="0" />
		<edge from-layer="981" from-port="1" to-layer="982" to-port="1" />
		<edge from-layer="982" from-port="2" to-layer="985" to-port="0" />
		<edge from-layer="983" from-port="0" to-layer="984" to-port="0" />
		<edge from-layer="984" from-port="1" to-layer="985" to-port="1" />
		<edge from-layer="985" from-port="2" to-layer="990" to-port="7" />
		<edge from-layer="986" from-port="0" to-layer="989" to-port="1" />
		<edge from-layer="987" from-port="0" to-layer="989" to-port="2" />
		<edge from-layer="988" from-port="0" to-layer="989" to-port="3" />
		<edge from-layer="989" from-port="4" to-layer="990" to-port="8" />
		<edge from-layer="990" from-port="9" to-layer="992" to-port="0" />
		<edge from-layer="991" from-port="0" to-layer="992" to-port="1" />
		<edge from-layer="992" from-port="2" to-layer="1152" to-port="1" />
		<edge from-layer="993" from-port="0" to-layer="994" to-port="0" />
		<edge from-layer="994" from-port="1" to-layer="995" to-port="1" />
		<edge from-layer="995" from-port="2" to-layer="998" to-port="0" />
		<edge from-layer="996" from-port="0" to-layer="997" to-port="0" />
		<edge from-layer="997" from-port="1" to-layer="998" to-port="1" />
		<edge from-layer="998" from-port="2" to-layer="999" to-port="0" />
		<edge from-layer="999" from-port="1" to-layer="1000" to-port="0" />
		<edge from-layer="1000" from-port="2" to-layer="1003" to-port="0" />
		<edge from-layer="1000" from-port="2" to-layer="1024" to-port="0" />
		<edge from-layer="1001" from-port="0" to-layer="1002" to-port="0" />
		<edge from-layer="1002" from-port="1" to-layer="1003" to-port="1" />
		<edge from-layer="1003" from-port="2" to-layer="1006" to-port="0" />
		<edge from-layer="1004" from-port="0" to-layer="1005" to-port="0" />
		<edge from-layer="1005" from-port="1" to-layer="1006" to-port="1" />
		<edge from-layer="1006" from-port="2" to-layer="1007" to-port="0" />
		<edge from-layer="1007" from-port="1" to-layer="1010" to-port="0" />
		<edge from-layer="1008" from-port="0" to-layer="1009" to-port="0" />
		<edge from-layer="1009" from-port="1" to-layer="1010" to-port="1" />
		<edge from-layer="1010" from-port="2" to-layer="1013" to-port="0" />
		<edge from-layer="1011" from-port="0" to-layer="1012" to-port="0" />
		<edge from-layer="1012" from-port="1" to-layer="1013" to-port="1" />
		<edge from-layer="1013" from-port="2" to-layer="1014" to-port="0" />
		<edge from-layer="1014" from-port="1" to-layer="1017" to-port="0" />
		<edge from-layer="1015" from-port="0" to-layer="1016" to-port="0" />
		<edge from-layer="1016" from-port="1" to-layer="1017" to-port="1" />
		<edge from-layer="1017" from-port="2" to-layer="1020" to-port="0" />
		<edge from-layer="1018" from-port="0" to-layer="1019" to-port="0" />
		<edge from-layer="1019" from-port="1" to-layer="1020" to-port="1" />
		<edge from-layer="1020" from-port="2" to-layer="1021" to-port="0" />
		<edge from-layer="1021" from-port="1" to-layer="1029" to-port="0" />
		<edge from-layer="1022" from-port="0" to-layer="1023" to-port="0" />
		<edge from-layer="1023" from-port="1" to-layer="1024" to-port="1" />
		<edge from-layer="1024" from-port="2" to-layer="1027" to-port="0" />
		<edge from-layer="1025" from-port="0" to-layer="1026" to-port="0" />
		<edge from-layer="1026" from-port="1" to-layer="1027" to-port="1" />
		<edge from-layer="1027" from-port="2" to-layer="1028" to-port="0" />
		<edge from-layer="1028" from-port="1" to-layer="1029" to-port="1" />
		<edge from-layer="1029" from-port="2" to-layer="1032" to-port="0" />
		<edge from-layer="1030" from-port="0" to-layer="1031" to-port="0" />
		<edge from-layer="1031" from-port="1" to-layer="1032" to-port="1" />
		<edge from-layer="1032" from-port="2" to-layer="1035" to-port="0" />
		<edge from-layer="1033" from-port="0" to-layer="1034" to-port="0" />
		<edge from-layer="1034" from-port="1" to-layer="1035" to-port="1" />
		<edge from-layer="1035" from-port="2" to-layer="1036" to-port="0" />
		<edge from-layer="1036" from-port="1" to-layer="1039" to-port="0" />
		<edge from-layer="1037" from-port="0" to-layer="1038" to-port="0" />
		<edge from-layer="1038" from-port="1" to-layer="1039" to-port="1" />
		<edge from-layer="1039" from-port="2" to-layer="1042" to-port="0" />
		<edge from-layer="1040" from-port="0" to-layer="1041" to-port="0" />
		<edge from-layer="1041" from-port="1" to-layer="1042" to-port="1" />
		<edge from-layer="1042" from-port="2" to-layer="1044" to-port="0" />
		<edge from-layer="1043" from-port="0" to-layer="1044" to-port="1" />
		<edge from-layer="1044" from-port="2" to-layer="1046" to-port="0" />
		<edge from-layer="1045" from-port="0" to-layer="1046" to-port="1" />
		<edge from-layer="1046" from-port="2" to-layer="1050" to-port="0" />
		<edge from-layer="1046" from-port="2" to-layer="1055" to-port="0" />
		<edge from-layer="1046" from-port="2" to-layer="1059" to-port="0" />
		<edge from-layer="1047" from-port="0" to-layer="1050" to-port="1" />
		<edge from-layer="1048" from-port="0" to-layer="1050" to-port="2" />
		<edge from-layer="1049" from-port="0" to-layer="1050" to-port="3" />
		<edge from-layer="1050" from-port="4" to-layer="1051" to-port="0" />
		<edge from-layer="1051" from-port="1" to-layer="1061" to-port="0" />
		<edge from-layer="1052" from-port="0" to-layer="1055" to-port="1" />
		<edge from-layer="1053" from-port="0" to-layer="1055" to-port="2" />
		<edge from-layer="1054" from-port="0" to-layer="1055" to-port="3" />
		<edge from-layer="1055" from-port="4" to-layer="1061" to-port="1" />
		<edge from-layer="1056" from-port="0" to-layer="1059" to-port="1" />
		<edge from-layer="1057" from-port="0" to-layer="1059" to-port="2" />
		<edge from-layer="1058" from-port="0" to-layer="1059" to-port="3" />
		<edge from-layer="1059" from-port="4" to-layer="1060" to-port="0" />
		<edge from-layer="1060" from-port="1" to-layer="1061" to-port="2" />
		<edge from-layer="1061" from-port="3" to-layer="1094" to-port="0" />
		<edge from-layer="1061" from-port="3" to-layer="1108" to-port="0" />
		<edge from-layer="1061" from-port="3" to-layer="1118" to-port="0" />
		<edge from-layer="1061" from-port="3" to-layer="1128" to-port="0" />
		<edge from-layer="1061" from-port="3" to-layer="1138" to-port="0" />
		<edge from-layer="1061" from-port="3" to-layer="1148" to-port="0" />
		<edge from-layer="1061" from-port="3" to-layer="1098" to-port="0" />
		<edge from-layer="1061" from-port="3" to-layer="1081" to-port="0" />
		<edge from-layer="1061" from-port="3" to-layer="1065" to-port="0" />
		<edge from-layer="1062" from-port="0" to-layer="1065" to-port="1" />
		<edge from-layer="1063" from-port="0" to-layer="1065" to-port="2" />
		<edge from-layer="1064" from-port="0" to-layer="1065" to-port="3" />
		<edge from-layer="1065" from-port="4" to-layer="1068" to-port="0" />
		<edge from-layer="1066" from-port="0" to-layer="1067" to-port="0" />
		<edge from-layer="1067" from-port="1" to-layer="1068" to-port="1" />
		<edge from-layer="1068" from-port="2" to-layer="1071" to-port="0" />
		<edge from-layer="1069" from-port="0" to-layer="1070" to-port="0" />
		<edge from-layer="1070" from-port="1" to-layer="1071" to-port="1" />
		<edge from-layer="1071" from-port="2" to-layer="1074" to-port="0" />
		<edge from-layer="1072" from-port="0" to-layer="1073" to-port="0" />
		<edge from-layer="1073" from-port="1" to-layer="1074" to-port="1" />
		<edge from-layer="1074" from-port="2" to-layer="1077" to-port="0" />
		<edge from-layer="1075" from-port="0" to-layer="1076" to-port="0" />
		<edge from-layer="1076" from-port="1" to-layer="1077" to-port="1" />
		<edge from-layer="1077" from-port="2" to-layer="1149" to-port="0" />
		<edge from-layer="1078" from-port="0" to-layer="1081" to-port="1" />
		<edge from-layer="1079" from-port="0" to-layer="1081" to-port="2" />
		<edge from-layer="1080" from-port="0" to-layer="1081" to-port="3" />
		<edge from-layer="1081" from-port="4" to-layer="1084" to-port="0" />
		<edge from-layer="1082" from-port="0" to-layer="1083" to-port="0" />
		<edge from-layer="1083" from-port="1" to-layer="1084" to-port="1" />
		<edge from-layer="1084" from-port="2" to-layer="1087" to-port="0" />
		<edge from-layer="1085" from-port="0" to-layer="1086" to-port="0" />
		<edge from-layer="1086" from-port="1" to-layer="1087" to-port="1" />
		<edge from-layer="1087" from-port="2" to-layer="1090" to-port="0" />
		<edge from-layer="1088" from-port="0" to-layer="1089" to-port="0" />
		<edge from-layer="1089" from-port="1" to-layer="1090" to-port="1" />
		<edge from-layer="1090" from-port="2" to-layer="1149" to-port="1" />
		<edge from-layer="1091" from-port="0" to-layer="1094" to-port="1" />
		<edge from-layer="1092" from-port="0" to-layer="1094" to-port="2" />
		<edge from-layer="1093" from-port="0" to-layer="1094" to-port="3" />
		<edge from-layer="1094" from-port="4" to-layer="1149" to-port="2" />
		<edge from-layer="1095" from-port="0" to-layer="1098" to-port="1" />
		<edge from-layer="1096" from-port="0" to-layer="1098" to-port="2" />
		<edge from-layer="1097" from-port="0" to-layer="1098" to-port="3" />
		<edge from-layer="1098" from-port="4" to-layer="1101" to-port="0" />
		<edge from-layer="1099" from-port="0" to-layer="1100" to-port="0" />
		<edge from-layer="1100" from-port="1" to-layer="1101" to-port="1" />
		<edge from-layer="1101" from-port="2" to-layer="1104" to-port="0" />
		<edge from-layer="1102" from-port="0" to-layer="1103" to-port="0" />
		<edge from-layer="1103" from-port="1" to-layer="1104" to-port="1" />
		<edge from-layer="1104" from-port="2" to-layer="1149" to-port="3" />
		<edge from-layer="1105" from-port="0" to-layer="1108" to-port="1" />
		<edge from-layer="1106" from-port="0" to-layer="1108" to-port="2" />
		<edge from-layer="1107" from-port="0" to-layer="1108" to-port="3" />
		<edge from-layer="1108" from-port="4" to-layer="1111" to-port="0" />
		<edge from-layer="1109" from-port="0" to-layer="1110" to-port="0" />
		<edge from-layer="1110" from-port="1" to-layer="1111" to-port="1" />
		<edge from-layer="1111" from-port="2" to-layer="1114" to-port="0" />
		<edge from-layer="1112" from-port="0" to-layer="1113" to-port="0" />
		<edge from-layer="1113" from-port="1" to-layer="1114" to-port="1" />
		<edge from-layer="1114" from-port="2" to-layer="1149" to-port="4" />
		<edge from-layer="1115" from-port="0" to-layer="1118" to-port="1" />
		<edge from-layer="1116" from-port="0" to-layer="1118" to-port="2" />
		<edge from-layer="1117" from-port="0" to-layer="1118" to-port="3" />
		<edge from-layer="1118" from-port="4" to-layer="1121" to-port="0" />
		<edge from-layer="1119" from-port="0" to-layer="1120" to-port="0" />
		<edge from-layer="1120" from-port="1" to-layer="1121" to-port="1" />
		<edge from-layer="1121" from-port="2" to-layer="1124" to-port="0" />
		<edge from-layer="1122" from-port="0" to-layer="1123" to-port="0" />
		<edge from-layer="1123" from-port="1" to-layer="1124" to-port="1" />
		<edge from-layer="1124" from-port="2" to-layer="1149" to-port="5" />
		<edge from-layer="1125" from-port="0" to-layer="1128" to-port="1" />
		<edge from-layer="1126" from-port="0" to-layer="1128" to-port="2" />
		<edge from-layer="1127" from-port="0" to-layer="1128" to-port="3" />
		<edge from-layer="1128" from-port="4" to-layer="1131" to-port="0" />
		<edge from-layer="1129" from-port="0" to-layer="1130" to-port="0" />
		<edge from-layer="1130" from-port="1" to-layer="1131" to-port="1" />
		<edge from-layer="1131" from-port="2" to-layer="1134" to-port="0" />
		<edge from-layer="1132" from-port="0" to-layer="1133" to-port="0" />
		<edge from-layer="1133" from-port="1" to-layer="1134" to-port="1" />
		<edge from-layer="1134" from-port="2" to-layer="1149" to-port="6" />
		<edge from-layer="1135" from-port="0" to-layer="1138" to-port="1" />
		<edge from-layer="1136" from-port="0" to-layer="1138" to-port="2" />
		<edge from-layer="1137" from-port="0" to-layer="1138" to-port="3" />
		<edge from-layer="1138" from-port="4" to-layer="1141" to-port="0" />
		<edge from-layer="1139" from-port="0" to-layer="1140" to-port="0" />
		<edge from-layer="1140" from-port="1" to-layer="1141" to-port="1" />
		<edge from-layer="1141" from-port="2" to-layer="1144" to-port="0" />
		<edge from-layer="1142" from-port="0" to-layer="1143" to-port="0" />
		<edge from-layer="1143" from-port="1" to-layer="1144" to-port="1" />
		<edge from-layer="1144" from-port="2" to-layer="1149" to-port="7" />
		<edge from-layer="1145" from-port="0" to-layer="1148" to-port="1" />
		<edge from-layer="1146" from-port="0" to-layer="1148" to-port="2" />
		<edge from-layer="1147" from-port="0" to-layer="1148" to-port="3" />
		<edge from-layer="1148" from-port="4" to-layer="1149" to-port="8" />
		<edge from-layer="1149" from-port="9" to-layer="1151" to-port="0" />
		<edge from-layer="1150" from-port="0" to-layer="1151" to-port="1" />
		<edge from-layer="1151" from-port="2" to-layer="1152" to-port="2" />
		<edge from-layer="1152" from-port="3" to-layer="1153" to-port="0" />
	</edges>
	<rt_info>
		<MO_version value="2022.3.0-9052-9752fafe8eb-releases/2022/3" />
		<Runtime_version value="2022.3.0-9052-9752fafe8eb-releases/2022/3" />
		<conversion_parameters>
			<compress_to_fp16 value="True" />
			<input_model value="DIR/best523_640.onnx" />
		</conversion_parameters>
		<legacy_frontend value="False" />
	</rt_info>
</net>
